app/models/gru_trained_model.pth (torch, 96154 bytes, 5 tensors)

gru.weight_ih_l0 f4 [192, 56]
0	0xbc12ff1f	-0.008971958
1	0xbde595ce	-0.112102136
2	0xbd922080	-0.07135105
3	0x3d90f66a	0.0707825
4	0xbbdf8f96	-0.0068225367
5	0x3dea80c2	0.1145034
6	0x3d833290	0.064061284
7	0xbcc4eec0	-0.024039626
8	0x3db13088	0.08651835
9	0x3de281a2	0.11059882
10	0x3c8011c8	0.015633479
11	0xbcae8980	-0.0213058
12	0xbde8f3b6	-0.11374609
13	0x3de1c65c	0.11024162
14	0x3cfc49d8	0.03079693
15	0x3dfb982c	0.12284884
16	0xbd8f3304	-0.06992152
17	0x3de75f3a	0.1129746
18	0xbd92b396	-0.071631595
19	0xbd619230	-0.055071056
20	0x3d9ecc22	0.07753779
21	0xbdcc442a	-0.09973939
22	0x3dd340b8	0.103150785
23	0xbd21b900	-0.03948307
24	0xbd03ce78	-0.032179326
25	0xbb275e80	-0.0025538504
26	0x3daebeda	0.08532496
27	0xbda7074c	-0.08155689
28	0xbd6738dc	-0.05645071
29	0x3cf3b670	0.029750079
30	0xbdc31174	-0.09524813
31	0x3dceadf8	0.10091776
32	0xbdc40b50	-0.0957247
33	0x3d348c10	0.044078887
34	0x3da18a74	0.07887736
35	0x3d15f774	0.036612943
36	0x3da6ec92	0.08150591
37	0xbd2615a8	-0.040547997
38	0x3cfe04f8	0.031008229
39	0xbd16e75c	-0.036841735
40	0x3dc2d7f8	0.09513849
41	0x3dd1b0ca	0.10238798
42	0xbd69b80c	-0.057060286
43	0x3d242cd4	0.040081814
44	0x3debc278	0.11511701
45	0x3d8e1920	0.06938386
46	0xbdef7d1c	-0.116937846
47	0x3ba44fa0	0.005014375
48	0xbbd3e020	-0.0064659268
49	0x3da92d4e	0.08260594
50	0x3d2a1398	0.041522592
51	0xbd9f5814	-0.077804714
52	0xbdc69368	-0.09696084
53	0xbd276f64	-0.040877715
54	0x3da6dc46	0.081474826
55	0xbd89e69c	-0.067334384
56	0x3dd5dc4c	0.10442409
57	0x3ddf78e2	0.109117284
58	0x3dfe67f0	0.12422168
59	0x3cd52330	0.026017755
60	0xbd49e964	-0.049294844
61	0x3d242df8	0.0400829
62	0xbdb21cca	-0.08696897
63	0x3d80d7f8	0.06291193
64	0xbd6a3d2c	-0.057187244
65	0x3c96ad40	0.018393159
66	0xbc85a8a0	-0.016315758
67	0x3d8f26c2	0.06989814
68	0xbdeba060	-0.115051985
69	0xbd3cf17c	-0.046128735
70	0xbde9e8d6	-0.11421363
71	0x3ddebe50	0.10876143
72	0x3d465358	0.048419327
73	0xbd16a820	-0.03678143
74	0x3dfb7bb0	0.12279451
75	0xbdc2cf46	-0.095121905
76	0x3dab1b70	0.08354843
77	0x3ddbde4e	0.10735761
78	0x3c770e80	0.015079141
79	0x3dfde7cc	0.12397727
80	0x3dfc5230	0.123203635
81	0xbc3a32b0	-0.011364624
82	0x3da8bffe	0.082397446
83	0x3c8de4d0	0.01732102
84	0x3da22034	0.079162985
85	0x3da26434	0.079292685
86	0x3decedfe	0.11568831
87	0xbdb0a916	-0.086260006
88	0xbb1f6540	-0.0024321824
89	0xbdefde7e	-0.11712359
90	0x3ddbef38	0.10738987
91	0xbdbe2876	-0.09285061
92	0xbd5642cc	-0.052309796
93	0xbdeaafc6	-0.114593074
94	0x3d8637d4	0.06553617
95	0x3de0bc00	0.10973358
96	0xbd839d30	-0.064264655
97	0xbdfe2a60	-0.12410426
98	0x3db3d454	0.08780733
99	0xbdc13d5e	-0.09435533
100	0x3d0db56c	0.034596846
101	0x3dc6207a	0.09674163
102	0xbd4416fc	-0.047873482
103	0x3d805800	0.06266785
104	0xbcfd9038	-0.030952558
105	0xbd12cba4	-0.035838738
106	0x3df3b4be	0.11899708
107	0x3d6c54b0	0.05769795
108	0xbdcb1242	-0.09915592
109	0xbbc965c0	-0.0061461627
110	0xbd9cd196	-0.07657163
111	0xbd7829b0	-0.06058663
112	0x3de63378	0.11240286
113	0xbd96a51e	-0.07355712
114	0x3de38d4e	0.11110936
115	0xbd34d52c	-0.04414861
116	0xbdb854ea	-0.09000571
117	0x3d55dfbc	0.052215323
118	0xbd830a6c	-0.06398472
119	0x3da3a850	0.079910874
120	0x3d1bc428	0.038028866
121	0x3cc3b3e8	0.023889497
122	0x3d692120	0.056916356
123	0xbd1c9988	-0.038232356
124	0x3c968a80	0.018376589
125	0x3de86300	0.11347008
126	0xbd98558a	-0.0743819
127	0xbcb852e8	-0.02250047
128	0xbd6ca984	-0.05777885
129	0xbcc3a848	-0.023883954
130	0x3dee468a	0.11634548
131	0x3df89c5a	0.12139197
132	0xbdbb4866	-0.09144668
133	0x3d3ddee8	0.046355158
134	0xbdba3b78	-0.09093374
135	0xbdca19c6	-0.09868197
136	0xbc9214d0	-0.01783219
137	0x3d78bd10	0.06072718
138	0x3dd65fe4	0.104675084
139	0xbc856d30	-0.016287416
140	0xbd527644	-0.05138232
141	0x3d8afd96	0.06786649
142	0x3d0a23e0	0.03372562
143	0xbd7a3884	-0.061089054
144	0x3c458380	0.012055278
145	0x3dbf277e	0.093337044
146	0x3d7f62b4	0.06234999
147	0xbc66bc00	-0.014082909
148	0x3df4db6e	0.119559154
149	0x3bc25400	0.0059304237
150	0x3d6b0a68	0.05738297
151	0xbd5e827c	-0.05432366
152	0xbdff4b7e	-0.12465571
153	0x3c633cb0	0.0138694495
154	0x3d90fcc6	0.07079463
155	0x3dbbb478	0.09165281
156	0xbcd3afc0	-0.02584064
157	0xbda349be	-0.079730496
158	0xbdaa3cc6	-0.08312373
159	0xbcf84af0	-0.03030917
160	0x3d29e850	0.041481316
161	0xbc96c9e8	-0.018406823
162	0x3d8235ea	0.063579395
163	0xbdb41f44	-0.08795026
164	0x3dcdb0aa	0.100434616
165	0x3dde6ee8	0.108609974
166	0x3b7ea340	0.0038854629
167	0x3da55644	0.080730945
168	0x3c25cf40	0.010120213
169	0x3bc94680	0.0061424375
170	0x3c7e27d0	0.015512422
171	0xbc6b2be0	-0.014353722
172	0x3dc7cd24	0.09755924
173	0xbdbf4fba	-0.093413785
174	0x3df84758	0.12122983
175	0x3d470458	0.048588127
176	0x3d690a24	0.056894436
177	0xbd717fd0	-0.058959782
178	0x3de2908e	0.11062728
179	0x3d7b12fc	0.0612974
180	0x3cb36bf0	0.021902055
181	0x3c4197a0	0.011815935
182	0x3cbd5ef8	0.023116574
183	0x3dfb4f1a	0.12270947
184	0xbdc29e44	-0.09502843
185	0x3d4ffb58	0.05077681
186	0xbcf8db98	-0.030378148
187	0x3da095b4	0.078410536
188	0x3c69ff40	0.014282048
189	0xbd377e8c	-0.04479842
190	0xbda22d46	-0.079187915
191	0x3def724e	0.11691724
192	0x3dead968	0.11467248
193	0x3d057a20	0.03258717
194	0x3befe620	0.007321134
195	0x3dbcbb72	0.0921544
196	0xbda898de	-0.08232282
197	0xbd3f0e74	-0.046644643
198	0x3cf0a638	0.029376134
199	0x3d97b7ca	0.07408102
200	0xbd23af68	-0.039962202
201	0x3d564d74	0.05231996
202	0xbc24bb70	-0.010054454
203	0xbd4c6e04	-0.049909607
204	0xbd7fe2f0	-0.062472284
205	0x3c98bdd8	0.018645212
206	0x3d1e0afc	0.038584694
207	0xbd162bdc	-0.03666292
208	0xbcbe11a0	-0.023201764
209	0xbcc2c118	-0.023773715
210	0x3d0cd534	0.034383014
211	0xbc8a5d90	-0.016890317
212	0xbdd5aac4	-0.104329616
213	0xbd2ab68c	-0.041677997
214	0xbd30e8c8	-0.043190747
215	0x3d5bc21c	0.053651914
216	0x3dd46c2c	0.10372195
217	0xbd959c78	-0.07305235
218	0x3dc3fa74	0.095692545
219	0x3dd82fac	0.10555968
220	0x3d99ac14	0.075035244
221	0x3d9adeae	0.07562004
222	0xbdb1772e	-0.0866531
223	0x3d11c798	0.035590738
224	0x3dfe1a30	0.124073386
225	0xbd243e7c	-0.040098652
226	0x3df890e6	0.12137012
227	0x3d7a3ed8	0.06109509
228	0x3c61e0f0	0.013786539
229	0x3d0e0154	0.034669235
230	0xbdfe17ee	-0.12406908
231	0xbd01f7c8	-0.031730443
232	0xbd44509c	-0.047928438
233	0xbd096c0c	-0.033550307
234	0xbd453250	-0.048143685
235	0x3d2a90d8	0.04164204
236	0xbd8a3974	-0.067492396
237	0xbd2ace20	-0.041700482
238	0xbd27cc50	-0.040966332
239	0x3b8f4640	0.004372388
240	0xbc4d7b20	-0.012541562
241	0x3daeeb6a	0.085409954
242	0x3cad4f28	0.021155909
243	0xbb94c1a0	-0.0045396835
244	0x3c826ae8	0.015920117
245	0x3dfe8e8c	0.124295324
246	0x3d0e0fb4	0.034682944
247	0x3d39f74c	0.045401856
248	0x3cfb7f30	0.030700296
249	0xbdeebd44	-0.11657193
250	0x3de4f3ca	0.111793116
251	0xbdd2a896	-0.102860615
252	0xbbcda020	-0.006275192
253	0x3bf7bea0	0.007560566
254	0xbdf263c0	-0.11835432
255	0xbd3af238	-0.045641154

gru.weight_hh_l0 f4 [192, 64]
0	0xbc194b80	-0.0093563795
1	0xbdedb27e	-0.1160631
2	0xbd3cf764	-0.046134368
3	0xbcb7f7b8	-0.022456989
4	0xbcc476f0	-0.023982495
5	0x3dc11108	0.094270766
6	0x3db9b09c	0.09066889
7	0xbd8864b2	-0.06659831
8	0xbd582588	-0.052770168
9	0xbd6502f0	-0.055911005
10	0xbcd3dd58	-0.02586238
11	0xbc2211c0	-0.009891927
12	0xbbe850a0	-0.0070896894
13	0x3db062bc	0.08612582
14	0x3dae2b02	0.08504297
15	0xbd02e048	-0.031952173
16	0xbdc30470	-0.09522331
17	0xbd97e120	-0.07415986
18	0x3dfc4368	0.12317544
19	0xbd33fe5c	-0.043943748
20	0x3d5823b4	0.052768424
21	0x3d5b43c8	0.053531438
22	0xbdd08a20	-0.10182595
23	0xbd3c8030	-0.046020687
24	0x3d2dcb28	0.042430073
25	0x3dc2af56	0.09506099
26	0xbd8e343a	-0.06943555
27	0x3d05f868	0.0327076
28	0xbd79f720	-0.061026692
29	0xbdafaf48	-0.08578354
30	0xbdb0dd02	-0.08635904
31	0xbd0a01bc	-0.03369306
32	0x3d50c678	0.050970525
33	0x3adbdd80	0.0016774386
34	0x3d5acf80	0.053420544
35	0x3dc83752	0.097761765
36	0x3c30eb30	0.010798261
37	0xbd47607c	-0.048676
38	0x3daeaf48	0.08529526
39	0x3be24400	0.006905079
40	0xbdd8ed52	-0.1059214
41	0x3db6a5e2	0.089183584
42	0x3df49b3e	0.119436726
43	0x3db1f67e	0.08689593
44	0x3d598970	0.053109586
45	0xbda45cb4	-0.08025494
46	0x3d28faac	0.041254684
47	0xbd9c99e2	-0.07646538
48	0xbd5fe7cc	-0.054664418
49	0x3d441690	0.04787308
50	0xbdf2ae5c	-0.11849663
51	0xbd594f3c	-0.05305408
52	0x3ddcf8e8	0.107896626
53	0xbc0ae7e0	-0.008478135
54	0xbdec941c	-0.11551687
55	0xbdb1799e	-0.08665775
56	0x3c18eec0	0.009334266
57	0x3dae118a	0.08499439
58	0xbd811c0a	-0.06304176
59	0x3da32e1a	0.079677776
60	0xbc858d58	-0.01630275
61	0xbde2f8aa	-0.11082585
62	0x3d23bd30	0.039975345
63	0xbd427728	-0.047476918
64	0x3ce42e08	0.02785398
65	0x3d5b1690	0.053488314
66	0x3cd8c978	0.026463255
67	0xbce51460	-0.027963817
68	0xbc97d7b8	-0.01853548
69	0x3dc67662	0.096905485
70	0xbd840842	-0.064468876
71	0xbc90b770	-0.017665595
72	0x3cf6ab58	0.030111
73	0x3d4e12e4	0.050310984
74	0xbd4f10e8	-0.050553232
75	0x3d674008	0.05645755
76	0xbdc5eab2	-0.09663905
77	0x3d278290	0.040896
78	0xbde05138	-0.10952991
79	0xbc8b2470	-0.016985148
80	0x3de1166c	0.10990605
81	0xbdd44f50	-0.1036669
82	0x3deef74c	0.11668262
83	0xbd42b754	-0.047538117
84	0xbda3aaa0	-0.079915285
85	0x3d1e383c	0.038627848
86	0x3ba46720	0.0050171763
87	0x3d1f8f20	0.038954854
88	0x3c57e260	0.013176531
89	0x3dd67fe2	0.104736105
90	0xbdab472a	-0.08363183
91	0x3d5f8e18	0.05457887
92	0x3de00252	0.109379426
93	0x3dfbf5b0	0.123027205
94	0xbcc81cf0	-0.024427861
95	0xbc88e628	-0.01671131
96	0xbd56abf8	-0.052410096
97	0xbc5d6f40	-0.013515294
98	0x3c1c85c0	0.009553373
99	0xbdf0add0	-0.11751902
100	0xbdbabd18	-0.09118098
101	0x3d438f28	0.047743946
102	0xbd056220	-0.032564282
103	0x3d75424c	0.05987768
104	0x3db2033e	0.08692025
105	0x3da35160	0.079745054
106	0xbbc5aae0	-0.006032333
107	0x3d1f0810	0.03882605
108	0xbda863aa	-0.082221344
109	0x3cdc9f40	0.026931405
110	0x3cd69bc8	0.02619733
111	0xbdbd27da	-0.09236117
112	0xbd23f0e0	-0.04002464
113	0x3d93611e	0.07196258
114	0xbd7d7b14	-0.061884955
115	0xbde5e0da	-0.11224528
116	0xbce36c70	-0.027761668
117	0x3c758080	0.01498425
118	0xbdf5cb90	-0.12001717
119	0x3dc22026	0.09478788
120	0x3d53ca7c	0.051706776
121	0x3b9b7ba0	0.004744962
122	0xbde113f0	-0.10990131
123	0xbd0c2608	-0.034215957
124	0xbde71078	-0.11282438
125	0x3d932ebc	0.07186648
126	0xbdee479c	-0.11634752
127	0xbda26194	-0.07928768
128	0xbd1a5d90	-0.037686884
129	0xbd99cdd4	-0.07509962
130	0x3d902abc	0.07039401
131	0x3df89bd6	0.12139098
132	0x3ddd242a	0.10797913
133	0x3dc85db0	0.097834945
134	0xbd121ef8	-0.035674065
135	0x3ddf8c42	0.10915424
136	0x3bdac8a0	0.0066767484
137	0xbdd94002	-0.10607912
138	0xbd9a5cd0	-0.07537234
139	0xbdf582c4	-0.11987832
140	0xbdbbce3c	-0.091701955
141	0xbca74970	-0.02042076
142	0xbd15624c	-0.036470696
143	0x3df7d280	0.121006966
144	0x3df779b4	0.1208376
145	0xbcfdd528	-0.03098543
146	0xbdadc32a	-0.0848449
147	0x3b3fec00	0.0029284954
148	0xbd3df8b0	-0.046379745
149	0xbc5f2940	-0.013620675
150	0xbb91c660	-0.004448697
151	0xbd041f30	-0.032256305
152	0x3d88beb8	0.06677002
153	0xbd62ddfc	-0.055387482
154	0x3d59ae5c	0.053144798
155	0x3dbae15e	0.09125017
156	0x3d72d9f8	0.059289902
157	0xbce0aff8	-0.027427658
158	0x3d199134	0.037491992
159	0xbd53837c	-0.051639065
160	0x3d6d25c4	0.057897344
161	0x3d88034a	0.06641252
162	0xbd582208	-0.05276683
163	0x3ddda326	0.10822134
164	0x3d0c0228	0.034181744
165	0xbd56a8c0	-0.052407026
166	0xbde002b6	-0.10938017
167	0xbab65d80	-0.0013913363
168	0x3a764100	0.0009393841
169	0xbd01b604	-0.031667724
170	0xbdaac4a6	-0.08338289
171	0xbd842592	-0.064524785
172	0xbdbba258	-0.09161824
173	0xbde1f124	-0.11032322
174	0x3d8f015e	0.06982683
175	0x3c67d770	0.014150485
176	0x3db4f394	0.08835521
177	0xbdf00744	-0.11720136
178	0x3d937fda	0.0720212
179	0x3d5a751c	0.05333434
180	0xbbbe6620	-0.005810514
181	0xbde79cf2	-0.11309232
182	0xbcefd1a0	-0.029274762
183	0x3da3d3cc	0.079993814
184	0xbdf858ee	-0.12126337
185	0xbcac66e0	-0.021045148
186	0x3cef28f0	0.029194325
187	0x3ce6d700	0.028178692
188	0xbd84607a	-0.06463714
189	0xbc626090	-0.013816968
190	0x3d9ca424	0.07648495
191	0xbd2640d4	-0.04058917
192	0xbd0f0184	-0.034913555
193	0x3d722c5c	0.059124336
194	0xbdc53bb6	-0.096305296
195	0xbd8f101a	-0.06985493
196	0x3c400420	0.0117197335
197	0x3d5a4060	0.05328405
198	0xbde79c9a	-0.11309166
199	0x3d5936cc	0.053030774
200	0x3ddcf222	0.10788371
201	0x3d67d6a0	0.056601167
202	0x3dbd2a96	0.09236638
203	0xbdfd429c	-0.1236622
204	0xbdc274d8	-0.094949424
205	0x3ddc7614	0.10764709
206	0xbce1d700	-0.02756834
207	0x3dc80294	0.09766117
208	0x3df52bea	0.119712666
209	0x3de14120	0.1099875
210	0xba899000	-0.0010495186
211	0x3d9cd456	0.07657687
212	0x3d9a2ae6	0.075277135
213	0x3d9cd3b2	0.07657565
214	0xbd2d7da8	-0.042356163
215	0xbb8126c0	-0.003941387
216	0xbd7902c0	-0.06079364
217	0xbdd240fa	-0.102662995
218	0xbd9273ec	-0.071510166
219	0xbded7032	-0.11593665
220	0x3db44498	0.08802146
221	0x3bc9f300	0.006163001
222	0x3cd7bea0	0.026336014
223	0x3dbdc926	0.09266882
224	0xbdb8b410	-0.09018719
225	0x3dfc3218	0.12314242
226	0xbd5538ec	-0.052056238
227	0x3d3e7070	0.046493948
228	0xbd807e40	-0.0627408
229	0x3da23d3a	0.07921834
230	0x3c87ddd8	0.016585276
231	0xbbe4ae00	-0.00697875
232	0xbd64a698	-0.05582294
233	0xbbfa8540	-0.007645279
234	0x3cacb658	0.021083042
235	0x3ddb6b4a	0.10713823
236	0xbd21dd94	-0.039517954
237	0xbdab6d00	-0.083703995
238	0xbcc56ef8	-0.024100766
239	0xbd035a00	-0.032068253
240	0x3d51d548	0.05122879
241	0xbd050fb0	-0.032485664
242	0xbc2e61f0	-0.010643467
243	0xbda762d2	-0.08173145
244	0xbcfd7850	-0.030941159
245	0xbde9a0d6	-0.1140763
246	0xbc5100f0	-0.012756571
247	0xbdf02824	-0.11726406
248	0xbd0df054	-0.034653023
249	0x3d3c4cfc	0.045971856
250	0xbd926dce	-0.0714985
251	0x3d383434	0.04497166
252	0x3ddb1334	0.10697022
253	0x3d8c0fe0	0.068389654
254	0x3b3d5ec0	0.0028895587
255	0xbcb7d228	-0.022439077

gru.bias_ih_l0 f4 [192]
0	0x3cae2f78	0.02126287
1	0xbd297638	-0.041372508
2	0xbc40c640	-0.0117660165
3	0xbd0e3190	-0.034715235
4	0xbc8c2980	-0.017109632
5	0xbd7ee238	-0.062227458
6	0xbdea47c0	-0.114394665
7	0x3df2ae46	0.11849646
8	0x3dc775f0	0.09739292
9	0xba459900	-0.00075377524
10	0xbdad7206	-0.08469014
11	0x3df6b168	0.12045556
12	0xbd19688c	-0.03745322
13	0x3c99f530	0.018793672
14	0x3dada92a	0.08479531
15	0x3ba885c0	0.0051428974
16	0x3d604250	0.05475074
17	0xbdfda8dc	-0.12385723
18	0xbdf67a36	-0.12035029
19	0x3db93a16	0.09044282
20	0xbddc2510	-0.107492566
21	0xbd9b5670	-0.07584846
22	0x3dbd01be	0.09228848
23	0xbce17860	-0.02752322
24	0xbdef25b2	-0.11677112
25	0xbdc3e75a	-0.09565611
26	0x3dd7078a	0.10499485
27	0x3d8aeab6	0.06783049
28	0xbd98d1f6	-0.07461922
29	0xbc6668c0	-0.01406306
30	0x3bff5380	0.0077919364
31	0xbdc0b3be	-0.09409283
32	0x3d26cc04	0.04072191
33	0xbd64a08c	-0.055817172
34	0x3dd17d72	0.10229005
35	0xbbff4080	-0.0077896714
36	0x3dfe5bce	0.12419854
37	0xbc88bbb8	-0.016691074
38	0xbda8cd12	-0.08242239
39	0x3d8a4e44	0.06753209
40	0x3db6e29e	0.089299425
41	0x3c5426d0	0.012948707
42	0x3d9b8eae	0.07595573
43	0xbd279eb0	-0.04092282
44	0xbdba0062	-0.09082104
45	0x3c1913f0	0.009343132
46	0x3d6cb1b8	0.057786673
47	0x3caf4848	0.021396771
48	0x3deb4252	0.11487259
49	0xbd8bb70c	-0.06822023
50	0x3d846e66	0.06466369
51	0x3dfe6804	0.12422183
52	0xbc2a9360	-0.0104111135
53	0xbcb94290	-0.022614747
54	0xbc56fa50	-0.013121203
55	0xbde31f64	-0.11089972
56	0xbde3a2f6	-0.11115067
57	0xbcc4d4a8	-0.024027184
58	0x3cd8c300	0.02646017
59	0xbd67f788	-0.05663255
60	0x3cfc5438	0.030801877
61	0xbd312380	-0.043246746
62	0x3dac8538	0.08423847
63	0xbdd6fa5a	-0.104969695
64	0x3d0c52e0	0.034258723
65	0x3cb1d4c4	0.0217079
66	0xbda9773a	-0.08274694
67	0x3c2b17b1	0.01044266
68	0xbc187649	-0.009305545
69	0x3d56d078	0.052444905
70	0x3d8fb2c8	0.07016522
71	0x3dc67049	0.096893854
72	0x3cd544f6	0.02603386
73	0x3cdae1bf	0.026718972
74	0x3c576bf7	0.013148299
75	0x3cb7f7cc	0.022457026
76	0xbde9c725	-0.11414937
77	0x3d956e96	0.07296483
78	0xbdd31420	-0.10306573
79	0xbdc2311a	-0.09482022
80	0x3d5ec822	0.05439008
81	0xbe090f99	-0.13384856
82	0xbd577af4	-0.05260749
83	0xbcb685d8	-0.022280619
84	0x3dab9195	0.08377377
85	0x3d395c63	0.045254122
86	0x3dbd531e	0.09244369
87	0xbda49162	-0.08035542
88	0xbd9bc5cf	-0.07606088
89	0xbcabc1a7	-0.020966364
90	0x3d04d3c2	0.03242851
91	0xbe127245	-0.14301403
92	0xbdd03f10	-0.10168278
93	0xbdec787c	-0.11546418
94	0x3dc7ae3f	0.09750032
95	0xbbe967a7	-0.007122952
96	0xbc159520	-0.009129792
97	0xbd70a76e	-0.058753423
98	0x3c3134e3	0.010815832
99	0xbdf49803	-0.119430564
100	0x3dce6526	0.10077886
101	0xbdd5190d	-0.10405169
102	0xbbe6826e	-0.0070345914
103	0x3df2d0bc	0.11856219
104	0x3de4f1d7	0.1117894
105	0xbd80fefd	-0.06298635
106	0xbc8c8970	-0.017155379
107	0x3cf299fa	0.029614437
108	0x3cd8a997	0.026448054
109	0x3d03fa56	0.03222116
110	0x3be08aed	0.0068524987
111	0x3db68df2	0.08913793
112	0xbdfe1520	-0.12406373
113	0x3d057471	0.03258175
114	0xbdd56c8a	-0.10421093
115	0xbda09604	-0.07841113
116	0xbd229ecd	-0.039702225
117	0xbd5fa33a	-0.054599024
118	0xbdcd578b	-0.10026463
119	0x3d41496f	0.047189172
120	0x3d3a7668	0.045523077
121	0x3ddca3a6	0.10773401
122	0x3d158a00	0.03650856
123	0xbdafb2db	-0.08579036
124	0x3cf0919d	0.029366309
125	0x3dc462f2	0.09589185
126	0xbd457598	-0.04820785
127	0x3d030003	0.031982433
128	0xbb92235a	-0.0044597806
129	0xbdac824a	-0.08423288
130	0xbc992895	-0.018696109
131	0x3d8c0e0f	0.06838619
132	0x3ca5faf5	0.020261267
133	0x3d1ba278	0.03799674
134	0xbdb5f570	-0.08884704
135	0x3cc2e9a8	0.023793057
136	0x3dc0ef2e	0.0942062
137	0xbc6ed882	-0.014577987
138	0xbd3774e5	-0.044789214
139	0xbdedaaea	-0.11604865
140	0x3dc5ef58	0.09664792
141	0x3babe960	0.0052463263
142	0x3d6d3cd0	0.057919323
143	0x3dc86c8a	0.09786327
144	0x3d890349	0.0669008
145	0x3ad42280	0.0016184598
146	0x3d932750	0.07185233
147	0xbb81d978	-0.003962692
148	0xbdfa0740	-0.12208414
149	0x3d6fd99a	0.05855713
150	0xbdd93104	-0.10605052
151	0x3de8c77e	0.11366175
152	0xbdfedfee	-0.12445055
153	0xbcffc97d	-0.031224007
154	0xbdbe5a34	-0.09294549
155	0x3d9d30c2	0.076753154
156	0x3cd43558	0.025904343
157	0x3d8c4358	0.06848782
158	0xbd668839	-0.056282256
159	0x3cc3743e	0.02385914
160	0xbd0c2e9d	-0.03422414
161	0x3de1854e	0.11011754
162	0x3d94f000	0.07272339
163	0x3dcd5490	0.10025895
164	0x3a00b0df	0.00049091683
165	0xbd720cf2	-0.059094377
166	0xbde042b6	-0.10950224
167	0x3c4c072a	0.01245288
168	0x3de6c428	0.112678826
169	0x3dd0c15a	0.10193129
170	0xbda6f9fd	-0.0815315
171	0xbd717bf8	-0.058956116
172	0xbc91615c	-0.01774662
173	0xbde0e7d4	-0.10981718
174	0xbde7cea2	-0.11318709
175	0x3def766c	0.11692509
176	0x3dbbba16	0.091663525
177	0x3d8dd5f1	0.06925572
178	0x3dd3f55b	0.10349532
179	0xbdc9e954	-0.09858957
180	0x3d9207b6	0.07130377
181	0xbd192a9d	-0.037394155
182	0x3d0a7db5	0.03381129
183	0x3cbba6ca	0.02290668
184	0xbdee62f9	-0.11639971
185	0xbc9acef0	-0.018897504
186	0x3dec33fa	0.11533351
187	0xbd504318	-0.050845236
188	0xbcc58cdc	-0.024115019
189	0xbb58e1c5	-0.0033093554
190	0x3dddc484	0.10828498
191	0x3d24a9cf	0.040201005

gru.bias_hh_l0 f4 [192]
0	0xbdef8ee8	-0.11697179
1	0xbdbd5f76	-0.09246723
2	0xbd873f4c	-0.0660387
3	0xbd177934	-0.036980823
4	0xbc3281f0	-0.010895237
5	0x3dfb8052	0.122803345
6	0x3dc2e972	0.095171824
7	0x3dfc93c2	0.1233287
8	0xbc1f5d90	-0.009726897
9	0x3da661f6	0.08124153
10	0x3de90b76	0.11379139
11	0x3cf54d38	0.029944047
12	0xbb8e5d60	-0.0043446273
13	0xbd50bfa4	-0.050964013
14	0x3d84942a	0.064735726
15	0x3da75ef2	0.08172406
16	0xbd00bed8	-0.031432003
17	0x3a9b6b80	0.0011857599
18	0xbdf81a4c	-0.12114391
19	0x3d4b7524	0.04967226
20	0xbdcba194	-0.09942928
21	0x3dba9d84	0.09112075
22	0xbce1f510	-0.027582675
23	0x3d3f7570	0.046742857
24	0xbdd66694	-0.10468784
25	0x3c13d230	0.009022281
26	0x3cbd0a18	0.023076102
27	0xbbba3ec0	-0.00568375
28	0xbcb67538	-0.022272691
29	0x3d9e0cb4	0.07717267
30	0xbdb00a68	-0.08595735
31	0xbd851a02	-0.06499101
32	0x3dfe2cc2	0.124108806
33	0xbbc631e0	-0.006048426
34	0x3d4eecd8	0.05051884
35	0xbd5db3b0	-0.05412644
36	0x3c96ed28	0.018423632
37	0x3d9d1038	0.07669109
38	0x3dbc6bda	0.092002586
39	0x3da35708	0.07975584
40	0xbdfa4e9a	-0.12222023
41	0x3d59b6ec	0.053152964
42	0xbdc36382	-0.09540464
43	0x3de6d180	0.11270428
44	0xbd87f14e	-0.06637822
45	0xbcec49e8	-0.028843835
46	0xbd0fbb20	-0.035090566
47	0x3d4843fc	0.04889296
48	0x3d286c30	0.0411188
49	0xbd616880	-0.0550313
50	0x3daf6dbe	0.085658535
51	0x3d1a6694	0.037695482
52	0x3db3afa2	0.08773734
53	0x3c5e4a70	0.013567552
54	0xbd3b6a68	-0.045755774
55	0xbdb6da32	-0.08928336
56	0x3de38aa8	0.11110431
57	0x3de6aa82	0.112629905
58	0xbd0b7a7c	-0.034052357
59	0xbdab2fa4	-0.08358696
60	0x3da813dc	0.08206913
61	0xbd8c3982	-0.06846906
62	0x3a642600	0.0008703172
63	0xbd6e76e8	-0.058218867
64	0x3da2ec0b	0.07955178
65	0x3dbd3c05	0.092399634
66	0x3cf504d0	0.029909521
67	0x3cc5944e	0.024118569
68	0x3db13f32	0.08654632
69	0x3d3cf42c	0.046131298
70	0xbc46b920	-0.012129098
71	0x3d996437	0.074898176
72	0xbcf243f2	-0.029573414
73	0x3d85b079	0.065278
74	0x3d8a3c55	0.06749789
75	0xbd92f2d1	-0.0717522
76	0x3c821a52	0.015881691
77	0x3c893fb6	0.016754013
78	0xbcf554c0	-0.029947639
79	0xbd50a2a8	-0.05093637
80	0x3d10e49e	0.035374276
81	0xbda02509	-0.07819564
82	0x3cc19aff	0.023633478
83	0xbc15d75f	-0.009145587
84	0x3dcfa8d3	0.101396225
85	0xbde3ab39	-0.111166425
86	0xbdc36692	-0.09541048
87	0xbd9631fc	-0.073337525
88	0x3daa44e9	0.08313925
89	0x3dc9f3a9	0.098609276
90	0x3dcadc7e	0.09905337
91	0xbc54f1f7	-0.012997142
92	0xbdeb4066	-0.114868924
93	0xbd9b409c	-0.07580683
94	0xbd9f10db	-0.07766887
95	0x3d6a87d5	0.057258446
96	0x3d5fbd98	0.05462417
97	0xbcdd9401	-0.027048113
98	0xbd738845	-0.05945613
99	0x3d9d675b	0.07685729
100	0x3dd5516e	0.10415922
101	0x3cee0c03	0.029058462
102	0x3c6acf62	0.0143316705
103	0xbd16b628	-0.03679481
104	0xbd8f39b3	-0.06993427
105	0xbb346417	-0.0027525479
106	0x3dc88cbb	0.09792467
107	0x3d93e4d6	0.07221381
108	0x3dd8926b	0.10574802
109	0xbd175d25	-0.036954064
110	0x3d772433	0.060337257
111	0x3d17ebcb	0.037090104
112	0x3de7bd70	0.11315429
113	0xbdfb0329	-0.12256462
114	0xbd5558c6	-0.052086614
115	0xbd9fcd12	-0.07802786
116	0xbd39c1e6	-0.04535093
117	0x3d1ab262	0.037767775
118	0x3e072ecf	0.1320145
119	0x3c90198a	0.017590303
120	0x3c540278	0.012940042
121	0x3d756b1c	0.0599166
122	0xbdc74cfb	-0.0973148
123	0xbd095dcd	-0.03353672
124	0xbdbf2cf7	-0.09334748
125	0xbdc3442c	-0.09534487
126	0x3dae8a3c	0.0852246
127	0x3e14e030	0.14538646
128	0x3de7da84	0.113209754
129	0x3ca15bf1	0.019697161
130	0x3d481136	0.04884454
131	0xbd419af1	-0.047266904
132	0xbd22a298	-0.039705843
133	0xbca62540	-0.020281434
134	0xbdc03f17	-0.093870334
135	0xbd89ed18	-0.06734675
136	0xbd741e3c	-0.059599146
137	0xbd109243	-0.035295736
138	0xbd8dfdf2	-0.06933202
139	0x3d5bd9f4	0.053674653
140	0x3df6ede8	0.12057096
141	0xbdf6f84a	-0.12059076
142	0xbde44a8a	-0.1114703
143	0x3dcb109a	0.09915276
144	0x3db425ee	0.08796297
145	0x3db24de6	0.08706264
146	0xbce68af7	-0.028142435
147	0xbd0c3d38	-0.03423807
148	0xbde45d34	-0.111505896
149	0x3d7a14f6	0.061055146
150	0xbde3f928	-0.11131507
151	0xbba90ac0	-0.005158752
152	0x3dfd092a	0.123552635
153	0xbd6d5532	-0.057942577
154	0xbce4c670	-0.027926654
155	0xbdd13e16	-0.1021692
156	0xbdb71430	-0.08939397
157	0xbdba0c2c	-0.09084353
158	0x3c7c86bb	0.015412982
159	0x3d2a0c54	0.041515663
160	0x3d17c930	0.0370571
161	0xbb83d247	-0.0040228697
162	0x3b506fc0	0.003180489
163	0xbd476960	-0.048684478
164	0xbde83e61	-0.11340023
165	0x3d0b0f12	0.03394992
166	0xbda60c8f	-0.08107864
167	0x3d033808	0.032035857
168	0xbdd2814a	-0.10278566
169	0xbd9660ff	-0.07342719
170	0x3dda60dc	0.10663006
171	0xbc9b7a38	-0.018979177
172	0x3decd117	0.11563318
173	0x3dfc3e4a	0.12316568
174	0xbd520bc8	-0.051280767
175	0x3d1eae10	0.038740218
176	0xbc594430	-0.013260886
177	0xbdf45943	-0.11931088
178	0x3de5b7d3	0.11216702
179	0x3df3750c	0.11887559
180	0xbd0d1302	-0.034441955
181	0xbd4adc30	-0.049526393
182	0x3dbb5178	0.09146398
183	0x3d1d1e84	0.03835918
184	0x3db9abe8	0.09065992
185	0xbcfcaea8	-0.030845001
186	0xbdb5a53a	-0.08869405
187	0xbdaa1960	-0.08305621
188	0x3cc4c178	0.024018034
189	0x3d2cc45f	0.04217946
190	0x3d51e86c	0.051247045
191	0xbc138920	-0.009004861

fc.weight f4 [1, 64]
0	0xbf26d47d	-0.6516798
1	0xbf35aee3	-0.7096998
2	0xbeaf1421	-0.34195045
3	0x3f1f3a5a	0.6219841
4	0xbed51f78	-0.4162557
5	0xbdd4d77c	-0.10392663
6	0xbe1ae767	-0.15127335
7	0x3ea79cc6	0.32736796
8	0xc07208ca	-3.7817864
9	0x3ec54d4d	0.38535538
10	0x3eea47f8	0.45758033
11	0x3eec04b5	0.4609734
12	0x3f003be9	0.50091416
13	0xbddfc0d9	-0.10925455
14	0x3d091900	0.033471107
15	0x3ed4366a	0.41447765
16	0x3f41db55	0.757253
17	0x3f766aa8	0.96256495
18	0xbe54917b	-0.20758621
19	0x3ebba597	0.36649773
20	0x3f13c697	0.577249
21	0x3f559bf6	0.834411
22	0x3e8a8edc	0.27062118
23	0xbf10fa1e	-0.5663165
24	0x3e85d226	0.26136893
25	0xbf4aff16	-0.7929548
26	0x3f7624d6	0.9614996
27	0xbfa7b4a3	-1.3102001
28	0x3ddaeb10	0.10689366
29	0xbedcab27	-0.4309933
30	0xbed32b8b	-0.41244158
31	0x3eddfcd2	0.4335695
32	0x3f42cbcf	0.7609224
33	0xbefa87a7	-0.4893162
34	0xbf30108d	-0.68775254
35	0x3f3ff6b4	0.74985814
36	0x3ee4bf2d	0.44677106
37	0x3f1cfbf8	0.61321974
38	0xbf0d922e	-0.5530118
39	0x3eb3ef6b	0.351436
40	0x3ebaf9d3	0.36518726
41	0x3d81f75b	0.063460074
42	0xbee713f1	-0.45132402
43	0xbf2e2c81	-0.6803666
44	0x3f38c8a1	0.72181135
45	0x3f535ea7	0.82566303
46	0xbf188166	-0.59572446
47	0x3e5855d4	0.21126491
48	0xbf0a8905	-0.54115325
49	0x3f385769	0.7200838
50	0xbe9120d6	-0.28345364
51	0xbeb3f6eb	-0.3514932
52	0x3efbf8ae	0.49213165
53	0xbf2dae35	-0.67843944
54	0x3edee9cd	0.4353775
55	0x3f53cc87	0.8273396
56	0xbed0f3ab	-0.40810904
57	0x3f0ab26c	0.541785
58	0xbf4b73c2	-0.7947351
59	0x3f74c6cd	0.95615846
60	0xbf427567	-0.7596039
61	0xbd91c14c	-0.071169466
62	0xbdf6ef13	-0.120573185
63	0xbe2f216e	-0.17102596
