app/models/gru_trained_model.pth (torch, 96154 bytes, 5 tensors)

gru.weight_ih_l0 f4 [192, 56]
0	0xbd3b6264	-0.04574813
1	0xbd3ba1bc	-0.04580854
2	0x3ddcd5d0	0.10782969
3	0x3d3d64a8	0.04623857
4	0xbd673120	-0.056443334
5	0x3da35b64	0.07976416
6	0x3d6dc958	0.058053344
7	0x3de35e8a	0.11102016
8	0xbde29cf0	-0.1106509
9	0x3da56bc0	0.08077192
10	0x3d47a8f4	0.04874511
11	0x3c0e1040	0.0086708665
12	0xbdc7264e	-0.09724103
13	0xbb189c80	-0.002328664
14	0x3db734e6	0.089456365
15	0xbd539068	-0.05165139
16	0xbafec280	-0.0019436628
17	0x3d814156	0.0631129
18	0x3de64f5a	0.11245604
19	0xbd0046c4	-0.031317487
20	0xbcc78c38	-0.024358854
21	0x3cf030a0	0.029320061
22	0x3de5a1c8	0.11212498
23	0xbd3957d0	-0.04524976
24	0x3c83aca8	0.01607354
25	0x3df58a34	0.11989251
26	0x3d0f7534	0.035023883
27	0x3de6067c	0.112317055
28	0x3dd0dbd6	0.101981804
29	0xbd9688f8	-0.073503435
30	0x3d9355ac	0.07194075
31	0x3d8afe0a	0.06786735
32	0x3db4dc38	0.08831066
33	0xbd468bb4	-0.048473075
34	0x3db7307e	0.08944796
35	0xbd43cd0c	-0.04780297
36	0xbdb2c55e	-0.08729051
37	0x3d710360	0.05884111
38	0x3def284e	0.116776094
39	0xbd86b928	-0.065782845
40	0xbd927664	-0.071514875
41	0x3cce2fb0	0.025169224
42	0xbd663da0	-0.056211114
43	0xbd8517ba	-0.06498666
44	0xbd9c9a24	-0.076465875
45	0x3d9321cc	0.071841806
46	0xbccfb548	-0.025354996
47	0x3dacddde	0.08440755
48	0x3de168a6	0.11006288
49	0xbc3c1cc0	-0.011481464
50	0x3d1e2990	0.038613856
51	0xbdf3acae	-0.118981704
52	0xbb2a4f80	-0.0025987327
53	0x3db2a04e	0.08721982
54	0x3cb2b9b0	0.021817058
55	0x3d0076bc	0.031363234
56	0xbc8ddb40	-0.01731646
57	0xbd585ee4	-0.05282487
58	0xbdb0ab08	-0.086263716
59	0x3c8d2e08	0.017233863
60	0xbdc6c9c6	-0.09706454
61	0xbdaec262	-0.08533169
62	0x3d84b812	0.06480421
63	0x3cc86478	0.02446197
64	0xbd92584c	-0.071457475
65	0x3dd06686	0.10175805
66	0xbdfdfd6e	-0.124018535
67	0xbc6e3a10	-0.01454021
68	0xbd555cac	-0.052090332
69	0xbdd85354	-0.105627686
70	0xbdf029c6	-0.11726718
71	0x3dbc5eb0	0.09197748
72	0x3d517ce8	0.05114451
73	0xbbeef9a0	-0.007292941
74	0xbd11f5b8	-0.035634726
75	0x3de8c636	0.11365931
76	0x3d8a614a	0.06756838
77	0x3db59fae	0.08868347
78	0xbdd9c4f0	-0.10633266
79	0xbd4a50c4	-0.04939343
80	0xbde9267a	-0.11384292
81	0x3d81fd7a	0.06347175
82	0xbd573c6c	-0.052547857
83	0x3d3e1974	0.046410993
84	0xbd5bec14	-0.05369194
85	0x3d9329dc	0.071857184
86	0x3c985b68	0.018598273
87	0xbde784fa	-0.1130466
88	0xbd731fc4	-0.059356466
89	0x3d64589c	0.055748567
90	0x3ded1db4	0.11577931
91	0x3de52a76	0.111897394
92	0x3dddf30c	0.10837373
93	0xbd4d2d5c	-0.050092086
94	0xbde94158	-0.113894165
95	0x3d21ba00	0.039484024
96	0x3c8a2aa0	0.016866028
97	0xbd702308	-0.05862716
98	0x3d1ee660	0.03879392
99	0xbd47297c	-0.048623547
100	0xbda5d088	-0.08096415
101	0x3d60401c	0.05474864
102	0x3cac3350	0.021020561
103	0xbdc30462	-0.0952232
104	0xbdcfe83a	-0.101517156
105	0xbde97bd4	-0.114005715
106	0x3dae6f6e	0.08517347
107	0x3d61cf6c	0.055129454
108	0xbc2483a0	-0.0100411475
109	0x3d010550	0.031499207
110	0xbdf063cc	-0.11737785
111	0xbd244a34	-0.040109828
112	0xbda3e0b6	-0.080018446
113	0xbcee1ee0	-0.029067457
114	0x3d080540	0.03320813
115	0xbd8ced12	-0.06881155
116	0xbccecd68	-0.02524443
117	0x3df7bb04	0.12096217
118	0x3db5899a	0.08864136
119	0x3dbd6d2e	0.0924934
120	0x3dfc8918	0.12330836
121	0xbdf1970e	-0.117963895
122	0xbd445d38	-0.047940463
123	0xbd882a50	-0.066486955
124	0xbdf12cd8	-0.117761314
125	0xbd94ef1c	-0.07272169
126	0x3d4847ec	0.048896715
127	0xbd1c0d40	-0.038098574
128	0x3d8ad544	0.067789584
129	0xbdf5bc92	-0.119988576
130	0x3b932ca0	0.0044914037
131	0x3deef8ea	0.1166857
132	0xbd807b54	-0.06273523
133	0x3d270154	0.04077275
134	0xbdbc0f60	-0.0918262
135	0xbd947a56	-0.07249896
136	0xbd905f50	-0.070494294
137	0xbdeb4b90	-0.11489022
138	0x3dfc63ca	0.12323721
139	0xbd9f7ca0	-0.07787442
140	0xbd13a24c	-0.03604345
141	0x3d8542aa	0.06506856
142	0xbd167630	-0.036733806
143	0x3d06b1d4	0.032884434
144	0x3ddc0aae	0.107442245
145	0x3dbf002e	0.09326206
146	0xbd4528c4	-0.04813458
147	0xbb64b440	-0.0034897476
148	0x3bd22820	0.0064134747
149	0xbda1d3e8	-0.07901746
150	0x3de5923a	0.11209531
151	0x3d8acd38	0.067774236
152	0x3c84dc60	0.016218364
153	0x3dc9eae2	0.098592535
154	0x3be73a20	0.0070564896
155	0x3de2eba6	0.110801026
156	0x3d42e8b4	0.047585204
157	0x3d9e5c2e	0.07732426
158	0x3d9f5818	0.077804744
159	0x3d691328	0.056903034
160	0xbb40d1c0	-0.0029421896
161	0x3d78b564	0.060719863
162	0xbdb08cba	-0.086205915
163	0x3dca302c	0.09872469
164	0x3d0db2b8	0.034594268
165	0xbccf4188	-0.025299802
166	0x3d5af23c	0.05345367
167	0x3dc1642c	0.094429344
168	0xbcf06a20	-0.02934748
169	0xbdddc53e	-0.108286366
170	0xbdd61994	-0.104540974
171	0x3dc8099c	0.09767458
172	0xbdad7d80	-0.08471203
173	0xbdb4a73a	-0.088209584
174	0x3df8b90c	0.1214467
175	0xbc54f090	-0.012996808
176	0x3d2a6c34	0.041607097
177	0xbbab10e0	-0.0052205175
178	0xbd40e948	-0.047097474
179	0xbd70d7ec	-0.05879967
180	0x3ddbcaaa	0.107320145
181	0x3dafa4d0	0.08576357
182	0x3d9a54f8	0.07535738
183	0xbd84b4d0	-0.064798
184	0xbdd5ddaa	-0.1044267
185	0x3d98830c	0.0744687
186	0x3c619260	0.013767809
187	0x3d632db4	0.055463508
188	0x3c1da1f0	0.009621128
189	0x3d219c14	0.03945549
190	0x3d487024	0.04893507
191	0xbdb45f22	-0.08807208
192	0xbcb75550	-0.022379547
193	0x3df8eabe	0.121541485
194	0xbd9a52b4	-0.075353056
195	0x3bd42680	0.006474316
196	0xbde1292a	-0.109941795
197	0x3d9b7d06	0.07592206
198	0x3d4e007c	0.05029343
199	0xbd0ef790	-0.034904063
200	0x3c113a10	0.008863941
201	0x3c6806e0	0.014161795
202	0xbdfd8588	-0.12378985
203	0xbcfc8778	-0.030826315
204	0xbd2dc99c	-0.042428598
205	0xbdbca9f6	-0.09212105
206	0xbdeb81be	-0.11499356
207	0x3d297be8	0.04137793
208	0x3dc0886c	0.094010204
209	0xbd778dfc	-0.06043814
210	0xbd87f7c0	-0.066390514
211	0x3d710ed4	0.05885203
212	0x3c58ccc0	0.01323241
213	0xbd7fd6ec	-0.062460825
214	0x3df0f0c2	0.11764671
215	0xbdd22ce2	-0.10262467
216	0x3d3ec1b8	0.046571463
217	0xbd9c1d4e	-0.07622777
218	0xbcc48678	-0.023989901
219	0x3df69d9c	0.1204178
220	0x3ddd2142	0.10797359
221	0x3d5fe194	0.054658487
222	0xbd817a82	-0.06322195
223	0x3d37ff90	0.044921458
224	0xbd934530	-0.07190931
225	0x3db69c72	0.08916558
226	0xbdb2200e	-0.0869752
227	0xbd95d97e	-0.07316874
228	0x3bc41120	0.005983487
229	0x3dacfe3c	0.08446929
230	0xbdc57064	-0.096405774
231	0x3cce4728	0.025180414
232	0x3d9cbdc0	0.076533794
233	0x3d4f3550	0.050587952
234	0x3b3e3840	0.0029025227
235	0xbda5d330	-0.080969214
236	0x3df64424	0.120247155
237	0xbdce5996	-0.10075681
238	0x3da61388	0.08109194
239	0x3d930af6	0.07179825
240	0xbd3ad7a0	-0.045615792
241	0x3c849248	0.016183034
242	0xbdf492de	-0.11942075
243	0xbd5d0c40	-0.05396676
244	0xbc14ec20	-0.0090895
245	0x3d4536f4	0.04814811
246	0x3c305ca0	0.010764271
247	0xbd475d7c	-0.048673138
248	0x3c76a920	0.015054971
249	0x3d8111c0	0.06302214
250	0x3d71f184	0.059068218
251	0xbdb11b74	-0.086478144
252	0xbd98a30e	-0.07452975
253	0xba7c5c00	-0.0009626746
254	0xbdcdaefe	-0.10043143
255	0x3d951e22	0.07281138

gru.weight_hh_l0 f4 [192, 64]
0	0xbdbcf504	-0.092264205
1	0xbd1657ac	-0.036704704
2	0xbd6442d8	-0.05572781
3	0xbd0bbdbc	-0.03411649
4	0x3d32bce8	0.043637186
5	0xbd8f3592	-0.069926396
6	0xbc526ef0	-0.012843832
7	0x3dbbaf5c	0.091643065
8	0xbd0d4ddc	-0.03449808
9	0xbdc1456c	-0.09437069
10	0x3d1fa464	0.038975134
11	0x3d4e77d4	0.050407246
12	0xbdae34d0	-0.08506167
13	0xbcf71b98	-0.030164525
14	0xbcc97c00	-0.02459526
15	0x3decdd44	0.115656406
16	0xbd0e39e4	-0.034723178
17	0xbddba000	-0.10723877
18	0xbd7eec0c	-0.06223683
19	0xbda482d4	-0.08032766
20	0x3de97a4e	0.11400281
21	0x3dd38020	0.10327172
22	0xbdfbccdc	-0.12294933
23	0xbd374400	-0.044742584
24	0xbdaa799e	-0.08323978
25	0xbd7a1610	-0.061056197
26	0xbdf58fb6	-0.11990301
27	0x3dd26336	0.10272829
28	0xbd2903c4	-0.041263357
29	0x3dc4a7d6	0.09602325
30	0xbb5ec1c0	-0.0033989996
31	0xbdc2c276	-0.09509747
32	0x3df60d26	0.120142266
33	0x3d494ac0	0.049143553
34	0x3d7bac5c	0.06144367
35	0xbd9214c0	-0.07132864
36	0xbc2721f0	-0.010200962
37	0xbdc95b38	-0.09831852
38	0x3dc3234e	0.09528218
39	0xbc8a7230	-0.016900152
40	0xbc999f50	-0.018752724
41	0x3abed380	0.0014558882
42	0x3d23008c	0.039795443
43	0xbdd9bb9e	-0.10631488
44	0x3dddb0d4	0.10824743
45	0xbd6eddf0	-0.058317125
46	0xbb1270c0	-0.0022345036
47	0xbc1be410	-0.009514824
48	0x3c60f4c0	0.013730228
49	0x3dde220e	0.10846339
50	0x3d8c8d04	0.06862834
51	0xbdd80524	-0.105478555
52	0xbd1c7b80	-0.038203716
53	0xbda0d530	-0.07853162
54	0xbdad031e	-0.0844786
55	0x3de6e2fe	0.11273764
56	0x3ad78400	0.0016442537
57	0x3d3d45f0	0.046209276
58	0x3d6f3b4c	0.05840616
59	0xbc662db0	-0.014048979
60	0xbdd45728	-0.10368186
61	0xbd419c04	-0.04726793
62	0x3ddec8ac	0.10878119
63	0xbddf49f0	-0.10902774
64	0xbd19f364	-0.03758563
65	0x3dfa938a	0.12235172
66	0x3c970d58	0.01843898
67	0xbca1d3b0	-0.01975426
68	0xbd8dc3b0	-0.0692209
69	0x3dc684ea	0.0969332
70	0xbd946660	-0.07246089
71	0xbdbe02c8	-0.09277874
72	0x3db99cce	0.09063111
73	0x3d1c3fd8	0.038146824
74	0xbc43df20	-0.011955053
75	0x3cb792c8	0.022408858
76	0xbce4e360	-0.027940452
77	0x3d36de68	0.044645697
78	0xbc5a6ce0	-0.013331622
79	0xbae67b80	-0.0017584413
80	0x3df09bf2	0.11748494
81	0x3da08b5e	0.07839082
82	0x3dddbe16	0.10827272
83	0xbc1355c0	-0.008992612
84	0xbdf71354	-0.120642334
85	0x3dd5755a	0.10422774
86	0xbdb24848	-0.08705193
87	0x3d6f7e60	0.05847013
88	0x3d887144	0.06662229
89	0x3db2dca2	0.087334886
90	0xbcd8acc0	-0.026449561
91	0x3d2cfbf4	0.04223247
92	0xbc236c80	-0.009974599
93	0x3ddab50a	0.10679062
94	0xbcf8a5d8	-0.030352518
95	0x3cea8460	0.028627574
96	0x3c5af350	0.013363674
97	0x3d745884	0.059654728
98	0xbdcddfe0	-0.100524664
99	0x3db99f78	0.090636194
100	0xbde0f7da	-0.10984774
101	0xbdb1931e	-0.086706385
102	0x3ca0efe0	0.019645631
103	0xbb6db9c0	-0.0036274046
104	0xbca66830	-0.020313352
105	0xbd484240	-0.048891306
106	0x39016400	0.00012339652
107	0x3d43f920	0.047845006
108	0x3d4f336c	0.05058615
109	0x3d75c9ac	0.060006782
110	0xbc35c5c0	-0.011094511
111	0xbde008b2	-0.109391585
112	0xbd76683c	-0.060158
113	0x3de2ef70	0.11080825
114	0xbd4b2ed8	-0.04960522
115	0xbc0a8500	-0.008454561
116	0xbd9881b8	-0.07446617
117	0xbca92120	-0.020645678
118	0x3cb31400	0.021860123
119	0x3d61a528	0.055089146
120	0x3c44c350	0.012009457
121	0x3d1b9cb4	0.03799124
122	0x3db9a4e6	0.09064655
123	0x3d306904	0.0430689
124	0xbd68432c	-0.056704685
125	0xbc532e00	-0.012889385
126	0x3ce21d58	0.027601883
127	0xbbef52c0	-0.0073035657
128	0x3d0e887c	0.03479813
129	0x3cedec10	0.029043227
130	0xbc9e2db0	-0.019308895
131	0xbdafd1de	-0.08584951
132	0x3dd35422	0.103187814
133	0x3bfdd060	0.0077457875
134	0xbd636380	-0.055514812
135	0xbd645718	-0.05574712
136	0x3d0a4ff4	0.033767655
137	0xbd8f3218	-0.069919765
138	0x3de7adf8	0.11312479
139	0xbc28b550	-0.0102971345
140	0x3d2f1d38	0.042752475
141	0x3d3d37bc	0.04619573
142	0x3b2bae00	0.0026196241
143	0xbd6635c0	-0.056203604
144	0xbd950f94	-0.07278362
145	0x3c37b800	0.011213303
146	0xbd98cea0	-0.074612856
147	0x3d1e5de0	0.038663745
148	0x3c5983d0	0.013276055
149	0x3daf34dc	0.08555004
150	0xbdd866d0	-0.10566485
151	0xbdff167c	-0.124554604
152	0x3da95b42	0.08269359
153	0x3cc7a9f0	0.024373025
154	0x3cd31f28	0.025771692
155	0x3c91df28	0.017806605
156	0x3bb1dec0	0.005428165
157	0x3d759b50	0.05996257
158	0xbd27a7f0	-0.040931642
159	0x3dcb20a2	0.099183336
160	0xbb2a56c0	-0.0025991648
161	0xbc916708	-0.017749324
162	0x3d82fe58	0.063961685
163	0xbd1119c4	-0.035424963
164	0x3d91d760	0.07121158
165	0x3d6d8cfc	0.05799578
166	0xbd69edb8	-0.057111472
167	0xbd180d64	-0.037122145
168	0x3d15dc6c	0.036587164
169	0xbdf446a8	-0.11927539
170	0x3d0a6a24	0.03379263
171	0x3dbbddca	0.09173162
172	0xbd9c83fe	-0.07642363
173	0xbcb84250	-0.022492558
174	0x3db0d4fa	0.08634372
175	0xbd4cf908	-0.050042182
176	0x3d8647cc	0.06556663
177	0x3bf4b0e0	0.007467374
178	0x3d920640	0.07130098
179	0xbc9ff128	-0.019524172
180	0xbd77db34	-0.060511783
181	0xbd136468	-0.035984427
182	0xbde181f2	-0.11011113
183	0x3d33b524	0.04387392
184	0xbce207d8	-0.02759163
185	0xbcd44df0	-0.02591607
186	0x3d968c94	0.07351032
187	0x3da273c6	0.07932238
188	0xbdc683fc	-0.09693143
189	0xbd954594	-0.072886616
190	0x3ca8a340	0.020585656
191	0xbdf62208	-0.1201821
192	0xbda2bdf8	-0.0794639
193	0xbc95de88	-0.018294588
194	0xbdc27c5a	-0.094963744
195	0xbdb5b0fa	-0.08871646
196	0xbc82bf00	-0.015960217
197	0xbc59a250	-0.013283327
198	0x3ceeb990	0.029141217
199	0x3da428a2	0.080155626
200	0xbc183be0	-0.009291619
201	0x3d853f70	0.0650624
202	0xbd5ef8e4	-0.05443658
203	0xbd68ec14	-0.056865767
204	0x3d8d1960	0.068896055
205	0x3d899920	0.067186594
206	0xbded3202	-0.11581804
207	0x3df84ae8	0.12123662
208	0x3c18e680	0.009332299
209	0xbd9285e6	-0.07154445
210	0x3daa43cc	0.083137125
211	0x3dc7296e	0.09724699
212	0xbdd4d950	-0.103930116
213	0x3db8ad22	0.090173975
214	0x3dc13d88	0.09435564
215	0x3d53f78c	0.05174975
216	0xbd996458	-0.07489842
217	0x3d87076a	0.06593211
218	0x3dedcff0	0.116119266
219	0xbc290ba0	-0.010317713
220	0xbdb4da2e	-0.08830677
221	0xbdf32256	-0.118717834
222	0xbdc34634	-0.095348746
223	0xbc87c680	-0.016574144
224	0x3db57b76	0.08861439
225	0xbda9d36e	-0.0829228
226	0xbdca6be6	-0.09883861
227	0x3d33dc64	0.043911353
228	0x3d70a174	0.058747724
229	0x3d7863cc	0.06064205
230	0xbd785b40	-0.060633898
231	0x3d096000	0.03353882
232	0xbde48a00	-0.11159134
233	0xbd02d364	-0.03193988
234	0xbdd8a7ba	-0.10578866
235	0xbdca57f2	-0.098800555
236	0xbc809f80	-0.015701056
237	0x3ccddc80	0.025129557
238	0x3dc1ac0c	0.094566435
239	0x3dac57bc	0.084151715
240	0x3d271b50	0.04079753
241	0x3d5b25fc	0.05350302
242	0x3bb1c660	0.0054252595
243	0xbd454790	-0.04816395
244	0x3ac62a80	0.0015118867
245	0xbdf4cd66	-0.11953239
246	0x3a2ba600	0.0006547868
247	0xbd6cc11c	-0.05780135
248	0xbc38c0f0	-0.011276469
249	0xbddae122	-0.10687472
250	0xbdd044d4	-0.10169378
251	0xbd522558	-0.051305145
252	0xbd2d20b0	-0.0422675
253	0xbc9b8fb0	-0.018989414
254	0xbdb23d6c	-0.087031215
255	0xbc8638b0	-0.016384453

gru.bias_ih_l0 f4 [192]
0	0x3df68ad0	0.12038195
1	0x3c9f0af8	0.01941441
2	0x3c7ed520	0.015553743
3	0x3d7b3670	0.061331213
4	0x3d2bb4b4	0.04192038
5	0x3d27408c	0.04083304
6	0x3d66fcdc	0.05639349
7	0xbdc17de2	-0.09447838
8	0xbc3e5ad0	-0.011618331
9	0x3c1828b0	0.009287044
10	0x3da6fc1c	0.08153555
11	0x3ddc3c90	0.10753739
12	0x3d975cd8	0.073907554
13	0xbc1295d0	-0.008946851
14	0x3de68e96	0.11257665
15	0x3ddc4052	0.107544556
16	0xbd04c600	-0.03241539
17	0x3dea9902	0.11454965
18	0xbcda45b8	-0.026644573
19	0x3ddfa992	0.10921015
20	0xbc935690	-0.017985612
21	0x3bfcfba0	0.0077204257
22	0xbd02319c	-0.031785592
23	0x3de0e34a	0.10980852
24	0xbd1398e8	-0.036034495
25	0xba0cf300	-0.0005376786
26	0x3dced404	0.100990325
27	0xbd9a0cc6	-0.075219676
28	0xbc0602b0	-0.008179352
29	0xbc690930	-0.014223382
30	0xbb231880	-0.002488643
31	0x3d97d27a	0.07413192
32	0x3ddf36ce	0.10899125
33	0x3c8bfbe0	0.017087877
34	0x3d6e3c78	0.058163136
35	0x3d3c774c	0.046012208
36	0x3c12d3a0	0.008961588
37	0xbd7aa260	-0.06119001
38	0xbdcf4004	-0.10119632
39	0x3c815090	0.015785486
40	0x3df1510e	0.11783038
41	0x3dbb117a	0.09134193
42	0x3da7ded4	0.08196798
43	0x3dfd661c	0.123729914
44	0xbd70ce24	-0.05879034
45	0x3db74268	0.08948213
46	0xbdebd918	-0.11516017
47	0x3cc357e0	0.023845613
48	0x3d8c18b2	0.06840648
49	0xbdd97064	-0.1061714
50	0x3df09530	0.11747205
51	0xbcedede8	-0.029044107
52	0xbccb54d8	-0.02482073
53	0x3df04a40	0.11732912
54	0x3b0d3ec0	0.0021552294
55	0x3d77be50	0.06048423
56	0xbde4e5e2	-0.11176659
57	0xbc6d8c40	-0.01449877
58	0xbda065b2	-0.07831897
59	0x3d507ce0	0.05090034
60	0x3db2d5a6	0.087321565
61	0x3dc56a84	0.09639457
62	0xbdea03d0	-0.114265084
63	0x3db6699e	0.08906864
64	0xbc89f680	-0.016841173
65	0x3d15a094	0.036530092
66	0x3d824d74	0.06362429
67	0x3d239890	0.039940417
68	0xbd10a5cc	-0.035314366
69	0x3ccdf238	0.025139913
70	0xbdac918e	-0.084262
71	0x3dbefa28	0.09325057
72	0x3d7976f4	0.06090446
73	0x3db89c8a	0.090142325
74	0xbdd9c6ca	-0.10633619
75	0xbddeff8a	-0.10888584
76	0xbd6fbba0	-0.058528543
77	0x3d8516ea	0.06498511
78	0xbce5a4c8	-0.028032675
79	0xbcd07da0	-0.025450528
80	0xbaa71080	-0.0012746006
81	0xbcc0c468	-0.023531154
82	0xbb336a00	-0.0027376413
83	0x3dbed4c8	0.093179286
84	0x3d2e5354	0.042559937
85	0xbdf78276	-0.1208543
86	0xbc3cc760	-0.011522144
87	0x3d51b47c	0.051197514
88	0xbc901488	-0.017587915
89	0xbd971f68	-0.07379037
90	0x3d947222	0.072483316
91	0x3c21e680	0.009881616
92	0xbd5c4838	-0.05377981
93	0x3dbb2c6c	0.09139332
94	0x3de2d8c8	0.11076504
95	0xbd057224	-0.032579556
96	0x3dbdc2d0	0.09265673
97	0xbd339490	-0.043842852
98	0xbcbc1e40	-0.022963643
99	0xbd7d73ec	-0.06187813
100	0xbd773e54	-0.060362175
101	0x3d9572e0	0.07297301
102	0x3d8ea8ce	0.06965791
103	0xbddf5ef0	-0.1090678
104	0xbd81f2b6	-0.063451216
105	0xbd5e5e80	-0.05428934
106	0xbdb231b8	-0.08700889
107	0x3dc61dc0	0.09673643
108	0xbc9250d8	-0.017860815
109	0xbdcab8d4	-0.098985344
110	0x3b909f80	0.004413545
111	0xbc09ce80	-0.00841105
112	0xbd10d2b8	-0.035357207
113	0x3ca9b768	0.020717338
114	0x3dd008d8	0.10157937
115	0x3c9d18a8	0.019176796
116	0xbdb10386	-0.0864325
117	0x3d860c76	0.065453455
118	0x3d08f268	0.0334343
119	0xbd61491c	-0.055001363
120	0x3c815e60	0.015792072
121	0x3d0bc000	0.034118652
122	0xbd848418	-0.064705074
123	0xbc4690b0	-0.012119457
124	0xbd8a2c28	-0.067467034
125	0x3cc2e310	0.023789912
126	0x3d3ca1d8	0.046052784
127	0xbd98db46	-0.07463698
128	0xbdfa758a	-0.1222945
129	0xbdb2a01e	-0.08721946
130	0xbc7b5fa0	-0.015342623
131	0xbcb6a0c0	-0.022293448
132	0x3d79b288	0.060961276
133	0x3d62de7c	0.05538796
134	0x3de72dbc	0.1128802
135	0x3cfc1270	0.03077051
136	0xbca7c2f8	-0.02047871
137	0x3b52cb00	0.0032164454
138	0x3d48883c	0.04895805
139	0xbd823bd2	-0.06359066
140	0x3db374fe	0.08762549
141	0x3d0aed84	0.03391792
142	0xbcbf2010	-0.023330718
143	0xbc16ab90	-0.009196177
144	0xbdc3f15e	-0.095675215
145	0xbd237d60	-0.03991449
146	0x3d4dd7e8	0.050254732
147	0xbda8ef96	-0.082488224
148	0x3b43abc0	0.002985701
149	0xbdf22bae	-0.118247375
150	0xbd3b8e58	-0.045790046
151	0x3d7a8954	0.061166123
152	0xbd905eb8	-0.07049316
153	0xbd80af76	-0.062834665
154	0xbde29c70	-0.11064994
155	0xbb6d1680	-0.003617674
156	0x3dc6e4f8	0.09711641
157	0x3d0220e0	0.031769633
158	0xbd2b24a4	-0.04178299
159	0xbdc60856	-0.09669559
160	0xbca336d0	-0.019923598
161	0x3da26968	0.07930261
162	0xbbc755a0	-0.0060832053
163	0x3db408ba	0.08790727
164	0xbce47be0	-0.0278911
165	0x3d42ee60	0.047590613
166	0xbd69f46c	-0.057117864
167	0xbde4e21e	-0.11175941
168	0x3dbecc22	0.09316279
169	0xbdd87f1e	-0.10571121
170	0xbd561074	-0.052261785
171	0xbdfeb7c4	-0.12437394
172	0xbdf70494	-0.1206142
173	0x3d83b73e	0.06431435
174	0xbc95e2e0	-0.018296659
175	0xbd8fa6e6	-0.07014255
176	0xbd8b8020	-0.06811547
177	0x3dd0a1c2	0.10187103
178	0x3dc2f63a	0.0951962
179	0xbd6de0a0	-0.058075547
180	0xbdde3a7a	-0.10850997
181	0x3d94beb8	0.07262939
182	0xbc99f1a0	-0.018791974
183	0xbd93fcce	-0.07225953
184	0xbdd4dc58	-0.1039359
185	0x3dada9e6	0.08479671
186	0xbda5cc44	-0.08095601
187	0x3c377c50	0.011199072
188	0xbd695b8c	-0.05697207
189	0x3ca280d0	0.019836813
190	0xbda216bc	-0.079144925
191	0x3ddcde1c	0.107845515

gru.bias_hh_l0 f4 [192]
0	0xbde545dc	-0.11194965
1	0xbd5b1ab0	-0.053492248
2	0x3ded2768	0.11579782
3	0x3dc5026a	0.09619601
4	0xbdb143d2	-0.08655514
5	0xbd4fee9c	-0.050764665
6	0x3d86febc	0.065915555
7	0xbdcb9192	-0.09939875
8	0xbd910038	-0.0708012
9	0xbdcc23ae	-0.09967743
10	0xbd55af9c	-0.052169427
11	0x3d97be5a	0.074093536
12	0xbcc8a930	-0.024494737
13	0x3d84b3ac	0.06479582
14	0xbd778e20	-0.060438275
15	0x3d8413fe	0.06449126
16	0x3de5c39a	0.11218949
17	0xbce8e7f0	-0.028430909
18	0x3c8dd7a8	0.017314747
19	0x3ddd7dc6	0.10815005
20	0xbdb6e784	-0.08930877
21	0xbd0d99a4	-0.03457035
22	0x3dc475d2	0.09592785
23	0xbc7ea8b0	-0.015543148
24	0xbc90ab08	-0.017659679
25	0xbc82e0e8	-0.015976384
26	0x3caf25f8	0.02138041
27	0x3d12f1f8	0.03587529
28	0xbdbe629c	-0.09296152
29	0x3d220ca8	0.03956285
30	0x3dcf4566	0.101206586
31	0xbd907ea2	-0.07055403
32	0x3c0ba9b0	0.008524343
33	0xbd1c2c74	-0.03812833
34	0x3dbf80d0	0.09350741
35	0x3ae87d00	0.0017737448
36	0x3d39b3d8	0.045337528
37	0x3d2f87f4	0.042854264
38	0xbd0d0670	-0.034429967
39	0xbd7604dc	-0.060063228
40	0xbdb7442a	-0.08948548
41	0xbdcb84f8	-0.09937471
42	0x3d61c104	0.055115715
43	0x3dc7ac30	0.09749639
44	0xbdbde396	-0.09271924
45	0x3d50f214	0.051012114
46	0xbd3fae28	-0.046796948
47	0x3d2b5300	0.0418272
48	0xbda1d49a	-0.07901879
49	0x3df8ffec	0.12158188
50	0x3d09a3c4	0.033603445
51	0xbdc88202	-0.09790422
52	0x3c208e40	0.00979954
53	0x3c92ff80	0.017944098
54	0x3c25f4e0	0.0101291835
55	0xbdab40d4	-0.08361974
56	0xbdcad096	-0.09903066
57	0x3dabbfb4	0.08386174
58	0x3da501cc	0.08056983
59	0xbde07628	-0.109600365
60	0x3d05176c	0.03249304
61	0xbc3c7580	-0.011502624
62	0x3da010e4	0.07815722
63	0x3d81afa4	0.06332329
64	0xbb2bb540	-0.0026200563
65	0x3ccbbdb0	0.024870723
66	0xbd6ef1cc	-0.058336064
67	0xbd4dbad4	-0.050227
68	0x3cb7af68	0.022422507
69	0x3c0245d0	0.007951215
70	0xbd2d5ee4	-0.042326823
71	0xbd4f6b34	-0.050639346
72	0xbbe61720	-0.0070217997
73	0x3d1876c8	0.037222654
74	0xbc89a530	-0.0168024
75	0x3dc99200	0.098423004
76	0xbc12a430	-0.008950278
77	0x3dc6d9f4	0.0970954
78	0x3bcafc20	0.0061946064
79	0x3d882582	0.06647779
80	0x3da02308	0.07819182
81	0xbdae99a8	-0.08525401
82	0xbcaa8d60	-0.020819366
83	0xbce47958	-0.027889892
84	0xbd74e564	-0.059789076
85	0x3deea924	0.11653355
86	0x3df24078	0.11828703
87	0x3d426e84	0.047468677
88	0xbdc02d6e	-0.09383665
89	0x3b94ff00	0.004547
90	0xbd90718a	-0.07052906
91	0x3df602b4	0.12012234
92	0x3da13f6a	0.078734234
93	0xbdedf166	-0.11618309
94	0x3c8d1ab0	0.01722464
95	0x3df1e316	0.11810891
96	0x3c975798	0.018474385
97	0xbc33cb00	-0.010973692
98	0x3deb8a34	0.115009695
99	0xbd36a3f4	-0.04458995
100	0x3d97a39c	0.07404253
101	0x3d7fd9ec	0.062463686
102	0xbdc301fe	-0.09521864
103	0x3c9b74b8	0.018976554
104	0x3d5b4888	0.053535968
105	0x3dd517b0	0.10404909
106	0xbd8ab8f6	-0.0677356
107	0xbd90d6b8	-0.07072204
108	0xbd84eb70	-0.06490219
109	0xbde00a16	-0.10939424
110	0x3c4770b0	0.012172863
111	0xbdf4c8ae	-0.11952339
112	0xbda0c550	-0.078501344
113	0x3d3397d4	0.043845966
114	0x3dfa2542	0.122141376
115	0xbcac67c0	-0.021045566
116	0x3c3b5320	0.011433393
117	0x3dd1f5c8	0.10251957
118	0x3ddb9a1e	0.10722755
119	0x3df208aa	0.11818059
120	0xbd6c79f8	-0.057733506
121	0xbdda6274	-0.1066331
122	0xbd817ef0	-0.063230395
123	0xbd828730	-0.06373441
124	0x3cc24ba8	0.023717716
125	0x3c882470	0.016618937
126	0xbc905ce8	-0.017622426
127	0xbd4475c8	-0.047963887
128	0xbdc24aca	-0.09486921
129	0x3ddb9ede	0.10723661
130	0xbce8e670	-0.028430194
131	0xbc728160	-0.014801353
132	0x3cbe51b0	0.023232311
133	0xbdba343e	-0.09091996
134	0xbd078620	-0.033086896
135	0xbd681784	-0.05666305
136	0x3d5fd850	0.05464965
137	0xbbecfd40	-0.007232338
138	0xbd087ca4	-0.03332199
139	0x3b52d180	0.0032168329
140	0xbda0daf2	-0.078542605
141	0xbd412b5c	-0.04716049
142	0xbd67aafc	-0.056559548
143	0xbc1a7340	-0.009426892
144	0x3da6d584	0.081461936
145	0xbd020304	-0.031741157
146	0xbd79d518	-0.060994238
147	0xbda13d5a	-0.0787303
148	0x3db949be	0.09047268
149	0xbd8ea0be	-0.06964253
150	0x3d004e80	0.031324863
151	0x3de586e0	0.11207366
152	0x3d3595c8	0.044332296
153	0x3d3da7a8	0.046302468
154	0xbc0b3080	-0.00849545
155	0xbd69efb8	-0.05711338
156	0x3d4435d8	0.047902912
157	0x3ca9fd70	0.020750731
158	0x3bb35040	0.005472213
159	0xbd9ff070	-0.07809532
160	0x3da0150a	0.07816513
161	0x3da0b6d0	0.07847369
162	0xbdef7cd8	-0.11693734
163	0xbd1dbab0	-0.038508117
164	0xbdb09d94	-0.08623806
165	0xbd9153e2	-0.070960775
166	0xbde0420c	-0.109500974
167	0xbdb23342	-0.08701183
168	0xbde92db6	-0.11385672
169	0xbd4b8c84	-0.049694553
170	0x3da7e5d0	0.0819813
171	0xbc698f90	-0.014255419
172	0x3db9b70a	0.09068115
173	0xbdcafe26	-0.09911756
174	0x3de382f8	0.11108965
175	0x3cbd57f0	0.02311322
176	0x3dc73474	0.097268015
177	0xbddb8b5a	-0.107199386
178	0xbc379800	-0.011205673
179	0x3cf2cc70	0.029638499
180	0xbc3d5140	-0.011555016
181	0x3d61688c	0.055031344
182	0x3dfa6f56	0.12228267
183	0xbd8b26c8	-0.06794506
184	0x3df5ec0a	0.120079115
185	0xbddb01d4	-0.10693708
186	0xbd07c378	-0.033145398
187	0xbda950b8	-0.08267349
188	0x3d437dc8	0.047727376
189	0xbd6cd848	-0.05782345
190	0xbde81fe2	-0.11334206
191	0xbca30508	-0.01989986

fc.weight f4 [1, 64]
0	0x3da74616	0.08167665
1	0x3dace9bc	0.08443019
2	0x3cb3a0d0	0.021927267
3	0xbd76eb00	-0.060282707
4	0x3d608474	0.054813817
5	0xbd05e37c	-0.03268765
6	0x3d06e448	0.03293255
7	0xbd379fc0	-0.044830084
8	0xbc2f10e0	-0.010685176
9	0xbdd8b944	-0.105822116
10	0x3db02bb6	0.08602087
11	0x3cc5f3f0	0.02416417
12	0x3d8ae948	0.06782776
13	0xbdafd54c	-0.08585605
14	0xbdb1aeac	-0.08675894
15	0xbd9f08e8	-0.077653706
16	0x3d04fc04	0.032466903
17	0xbcd45dd0	-0.02592364
18	0x3ca2f908	0.019894138
19	0x3db3f662	0.08787228
20	0xbd6307e0	-0.055427432
21	0x3de4b65a	0.11167593
22	0x3c1ee0a0	0.009697109
23	0xbd297f2c	-0.041381046
24	0x3dda2f30	0.106535316
25	0xbd7705b8	-0.06030819
26	0xbde7f13c	-0.11325309
27	0xbdd0d64a	-0.101971224
28	0xbd9038fa	-0.070421174
29	0x3d6d87e4	0.057990924
30	0x3b04e240	0.0020276457
31	0x3cd15830	0.025554746
32	0x3ddde438	0.10834545
33	0x3d9a78c6	0.07542567
34	0x3a811780	0.0009848922
35	0xbdc78ec6	-0.09744029
36	0x3daa6904	0.083208114
37	0x3d778ddc	0.060438022
38	0xbda5131e	-0.08060287
39	0xbd62565c	-0.05525814
40	0xbda20b6a	-0.07912333
41	0x3ddf8562	0.10914113
42	0x3d2fae80	0.042891026
43	0xbdcf9438	-0.10135692
44	0xbba32e20	-0.0049798638
45	0x3c8c7578	0.017145857
46	0xbd535bc4	-0.051601186
47	0x3c7feb80	0.015620112
48	0x3be90340	0.007110983
49	0x3d98ce8c	0.07461271
50	0xbdf68422	-0.12036921
51	0x3deed8fc	0.1166248
52	0x3dc8ec36	0.09810679
53	0x3d457ed8	0.04821667
54	0x3d78b400	0.060718536
55	0xbdbbee82	-0.09176351
56	0x3b865680	0.004099667
57	0x3ddc4af6	0.10756485
58	0xbdb69f0c	-0.089170545
59	0x3cca3868	0.0246851
60	0xbd39c044	-0.045349374
61	0xbcbeaa68	-0.023274615
62	0xbd31d824	-0.04341902
63	0xbcbd7540	-0.023127198
