app/models/lstm_rnn_trained_model.pth (torch, 352287 bytes, 21 tensors)

lstm.weight_ih_l0 f4 [256, 61]
00000000: 6ed4 f3bd 0811 123d 00fc 023c d691 abbd
00000010: c0b1 633b e207 89bd 80bf f6ba e4c8 f7bd
00000020: ceed ae3d 48d7 8abc 0080 4cbc d41e 113d
00000030: 64cc 67bd b49b 5ebd 70b1 37bc 208f a4bd
00000040: 2cc7 973d 50fd a3bd 30a4 313d d0f7 973d
00000050: a8a8 b9bd 807b b4ba 00db 9ebd 56e0 c9bd
00000060: 3265 b93d 24b2 94bd 3038 bd3c ba5c c43d
00000070: 2617 e23d 0020 fe39 483d 643d 809c 30bd
00000080: 1aa7 d0bd 582d f93c ea58 aabd 08da 6c3d
00000090: fc82 2bbd c05d bc3b 1ea8 c83d 0af1 873d
000000a0: 8456 923d 6ed4 81bd fcef b43d 94dc d9bd
000000b0: 70a4 07bd 0871 733d 82d0 bcbd f0de f6bd
000000c0: 282d 923c a079 cebb ec0f c7bd cedc 99bd
000000d0: 26f6 973d 0ce3 cdbd f8c2 93bc 16a0 e5bd
000000e0: 9afe e13d f8fc 8cbc e0be b5bc 5ad4 96bd
000000f0: d805 c53d 9c19 d83d 7851 d3bd 1416 c33d
00000100: aac6 dd3d b6d8 cc3d 90a5 133d 569c e53d
00000110: f8a5 87bd dce9 973d e408 413d f267 bebd
00000120: 565e 9a3d 1094 353d 201a 98bd 5a18 ac3d
00000130: 60c9 153c 403f d1bb 9cd3 923d 5c93 28bd
00000140: cce3 5fbd 8c0a 9dbd de91 95bd acda c13d
00000150: 10e8 f5bc 70f9 97bd 0846 b33c f8d2 34bd
00000160: 201c 94bd f4b5 3bbd 5227 e43d dadb b13d
00000170: ce39 ad3d b084 85bc 8270 883d 14f9 e9bd
00000180: 9a97 b33d 2270 b43d a651 b63d 768c 87bd
00000190: 001c e639 3c47 023d e09b 1e3d d41c 2c3d
000001a0: e0be 66bd a055 b2bd f685 bcbd f832 4f3d
000001b0: 4264 e23d f49f 3c3d 26a7 ccbd de02 d0bd
000001c0: 5822 3b3d 72a8 c6bd 08f0 693d 100d 423d
000001d0: e4cd e53d 4880 e73d 665d c9bd 2a70 babd
000001e0: 0e50 90bd 38ef 64bd 58b4 a1bd 300f 7ebd
000001f0: f8f8 ccbc 48b1 be3d e056 59bc 003d 723d
00000200: 204e 9b3b 34e7 e13d 62be 8e3d 60f0 39bd
00000210: 80f2 8aba 14f4 c3bd e89f eebc 9012 523c
00000220: 5e32 a83d 6e50 e73d 00b6 bf3b 0015 203b
00000230: 0eb7 813d c0e3 ac3c 82f9 e13d ea03 8c3d
00000240: c47b 66bd 481b 653d 34d4 993d 80fd 49bb
00000250: e85e 05bd b86e ecbc 0adb de3d c020 d73c
00000260: d058 f63c e6c5 91bd fac6 eabd 088e e73d
00000270: f0f7 94bd 3c44 01bd c0d3 34bc 0c25 acbd
00000280: 3272 af3d dc03 54bd 744d 403d 28e6 ba3d
00000290: 64c1 cebd 52ff babd 2abf d63d e477 2f3d
000002a0: ac46 f33d c889 d4bc 5271 c43d 883c ea3d
000002b0: d6df c6bd 582d b4bc 3482 bf3d 6a94 bc3d
000002c0: 8ec5 87bd d8b9 8f3c da55 c7bd 6819 a73d
000002d0: 5872 463d 7243 8f3d 9e1b 88bd fedf 853c
000002e0: 2400 74bd a240 ab3d fad0 f03d 525b f03d
000002f0: 7364 f5bd 1807 d8bc 4ba4 d33c adcf 2f3d
00000300: 1022 cf3d eb36 f2bd ffbc 95bd ebca c33d
00000310: f008 94bc 08b0 cdbc 4af7 2abc 683b 8cbc
00000320: 6232 d53d 3092 123d ace8 c3bd a099 0b3d
00000330: d464 e1bd 5ca6 4b3d 6857 9e3d f089 78bc
00000340: 6070 fbbb 94cb 26bd e870 1cbd 10d5 8b3c
00000350: 1a43 83bd c878 bb3c 6258 93bd 4047 cb3d
00000360: 54c1 cdbd e4ab 103d 5265 bcbd 8ce8 f5bd
00000370: 0e27 a8bd 481d d43d 4d62 ccbd 5021 003d
00000380: b880 2cbd b864 9d3c 9231 a9bd c084 d43d
00000390: c493 103d 3882 9ebc 1a34 bebd 2454 0c3d
000003a0: c8ed afbc 7c19 cb3d e075 1e3c aeeb 8bbd
000003b0: 9041 cf3c a0b2 e33c 762d d13d dcfd 08bd
000003c0: 2806 66bd 00a5 9e3d 2ab8 28bc 00c4 12bd
000003d0: 2c8e 1bbd ce9a b9bd 08a6 26bd 1024 5abc
000003e0: 9091 44bc efb0 b03d 507c db3c 330c b53d
000003f0: e982 86bd 6362 1f3d 493e 4b3a 8776 d0bd
-0.11905752 0.035660774 0.007994652 -0.083774254 0.0034743398 -0.06690957 -0.0018825382 -0.12098864
0.085414514 -0.016948357 -0.012481689 0.03542979 -0.056591406 -0.05434771 -0.011211738 -0.080351114
0.07411036 -0.080073 0.043369472 0.07420313 -0.09065372 -0.0013769716 -0.07756615 -0.09857242
0.090525046 -0.0726054 0.023098081 0.09587999 0.110395715 0.00048470497 0.055722505 -0.043118
-0.10188122 0.03041713 -0.0831774 0.05782512 -0.041872963 0.0057484806 0.09797691 0.066377714
0.07145408 -0.06339346 0.08834836 -0.10637775 -0.033115804 0.059433967 -0.09219457 -0.12054241
0.017843798 -0.00630112 -0.09719834 -0.07512818 0.07419996 -0.100530714 -0.018037304 -0.112121746
0.110348895 -0.017210469 -0.022185743 -0.073647216 0.09620255 0.105517596 -0.10318273 0.095256954
0.10828908 0.10002272 0.036046565 0.11211459 -0.06623453 0.07417652 0.04712762 -0.0929717
0.075375244 0.044330657 -0.07426858 0.08403082 0.00914225 -0.006385714 0.071692675 -0.041156158
-0.054660603 -0.07668027 -0.073032126 0.094655365 -0.030017883 -0.07420623 0.02188398 -0.044146508
-0.07231927 -0.04582782 0.11140312 0.086845115 0.08458291 -0.016298622 0.06662084 -0.11424461
0.0876915 0.0881045 0.08902292 -0.06618588 0.0004388988 0.031806216 0.038722873 0.04201968
-0.056334376 -0.08707738 -0.092052385 0.050585717 0.11054279 0.04605098 -0.099928185 -0.10156797
0.04568705 -0.09700097 0.057113677 0.04737574 0.11220911 0.113037646 -0.098322675 -0.09103425
-0.07046519 -0.0558922 -0.07895726 -0.062026203 -0.025021061 0.093111575 -0.0132653415 0.059140205
0.004739538 0.110304266 0.069699064 -0.045395255 -0.0010600835 -0.095680386 -0.029128984 0.012821808
0.08212732 0.112946376 0.0058505535 0.002442658 0.06333743 0.021104693 0.11033918 0.06836684
-0.056270376 0.05593422 0.07511178 -0.0030821264 -0.032561213 -0.028861389 0.10881622 0.026260734
0.030071646 -0.07117824 -0.11463733 0.11306387 -0.07273853 -0.031559214 -0.011036813 -0.08405504
0.08566703 -0.051761493 0.046948865 0.0912593 -0.1009548 -0.0913073 0.104856804 0.042838946
0.11878714 -0.025944605 0.09591927 0.11437327 -0.09710662 -0.021994278 0.09351006 0.09207995
-0.066294774 0.017544672 -0.09733172 0.08159143 0.04844889 0.06995286 -0.066458926 0.01634216
-0.059570447 0.08361937 0.11758609 0.11736168 -0.1198205 -0.02637057 0.025835177 0.042922664
0.10113919 -0.11826881 -0.07311439 0.09560188 -0.018070668 -0.025108352 -0.010434935 -0.01711817
0.104100004 0.035783947 -0.09565863 0.034082055 -0.110055596 0.0497192 0.07731515 -0.015169606
-0.0076733083 -0.04072149 -0.038193613 0.01706937 -0.06409283 0.022884741 -0.07194592 0.09925699
-0.1004664 0.035320178 -0.09199013 -0.120072454 -0.08210574 0.103571475 -0.09979687 0.03128177
-0.042114943 0.019213066 -0.08261408 0.103768826 0.03529717 -0.019349203 -0.09287281 0.03425993
-0.021475688 0.0991697 0.009671658 -0.06832062 0.025299817 0.027795136 0.10213749 -0.033445224
-0.056158215 0.07746315 -0.010297814 -0.03583145 -0.037977383 -0.0906273 -0.040685683 -0.013314262
-0.011997595 0.086274974 0.026792675 0.088402174 -0.06567938 0.03891219 0.00077531167 -0.10178857

lstm.weight_hh_l0 f4 [256, 64]
00000000: 0846 bd3c 08ad 40bd c202 d83d f229 92bd
00000010: 1647 dc3d 2092 5f3d b8e7 cc3c 40c9 293d
00000020: dec1 b0bd a026 723c de77 d9bd d6c0 ddbd
00000030: a00e c53b 6c01 e2bd bc46 733d 8cfd 5abd
00000040: 821d 8b3d b680 a93d e4c5 5cbd 20c8 8cbb
00000050: 64b0 99bd b2aa cabd 1841 983c 003f 86ba
00000060: 602e 45bc 4097 25bc 9cc2 ae3d 10c2 88bd
00000070: 7ae0 c3bd 201f 583d 3008 8fbd e467 ecbd
00000080: 009e 96bc ee44 a8bd 7a6c d43d 0a16 eb3d
00000090: 98bc d83d bad9 a7bd 3048 a2bc 063d a13d
000000a0: 1072 d3bd 606f fa3d c859 ea3c fce3 ae3d
000000b0: 00bc dd3b beab f83d e0e6 e53d 2adc f63d
000000c0: 909c 31bd d8ed bbbd bcd9 3f3d a411 56bd
000000d0: e03e 763d 0eaa 9a3d 9806 ecbc c0b1 243c
000000e0: 9089 c53d cea8 af3d dcaf 95bd 4c16 34bd
000000f0: 6080 a73d 80ca 27bc 928f 88bd c885 a9bd
00000100: a8ae e6bd 9081 b1bd 6073 c2bd 82e3 e23d
00000110: b860 fbbd 58e9 debc 1ccb f5bd e029 b73c
00000120: 54b0 323d fc0b b83d 1c7d 82bd 6496 5d3d
00000130: 4836 9e3d 0cf0 6dbd 6c74 dd3d c2c7 fa3d
00000140: 1056 463d a0bd b53b b819 59bd c033 52bc
00000150: a49e 733d 906e 593c 3ccd 8dbd c034 c23d
00000160: d407 f0bd 38cb 1bbd 6285 a43d 803c bf3c
00000170: c0fa 753d 066d 92bd 74f8 6e3d 94a8 d13d
00000180: 5c74 a43d a2b4 a63d c858 97bc 5ef0 a63d
00000190: e801 97bc 4686 f23d 9024 9ebc 48fb f4bc
000001a0: 960e e93d 6e45 92bd 084d 9e3c b0e5 13bd
000001b0: 44c9 16bd 2a9e 913d c03f 05bc ceef c53d
000001c0: f04a eebc a097 b4bb e010 e73b 64b8 c43d
000001d0: 9c6d 22bd faac a3bd c0ba bfbb bea2 a03d
000001e0: 6838 823d c498 08bd 0064 2b3a 7af9 b53d
000001f0: 389d e7bd 7cfc 893d 5ea9 d03d 6cc4 eb3d
00000200: 36c2 ba3d e400 0abd 02da ac3d 6040 3fbc
00000210: a091 1d3d c032 5fbd 982f f23d f449 cdbd
00000220: 54b7 95bd 880d ab3d bc9a 84bd 2822 d03d
00000230: 48d4 bfbd 101e 3e3d b4c6 763d e04c 5bbd
00000240: e24c bfbd a031 19bc 7c17 613d 583c 65bd
00000250: a04b e0bb 1046 ddbc d060 d6bc 70d0 b1bd
00000260: 3081 74bc 6498 aa3d d89a 01bd 305c ec3d
00000270: e04a 823d 7007 493d 58e8 c7bd fe8a c0bd
00000280: fa85 9a3d f007 67bc 34ad 2c3d cc85 f03d
00000290: 26a1 aebd 506f 2f3c 3a73 82bd 70d7 4c3d
000002a0: a611 fabd 404e 87bd 56cd 8a3d 5cdd f63d
000002b0: d6ae 973d d0db 943d 50fe 64bd c2f0 96bd
000002c0: 58ab 02bd e0e8 c53b 2a2e d9bd e0b2 103d
000002d0: b660 e5bd 048b f4bd 10d3 1e3d 0c2d 703d
000002e0: 4ee0 f63d 10ae 7a3d 902f 8e3c e0f9 693c
000002f0: b02b 05bd c0b8 92bc ca2a e63d 1c43 febd
00000300: 8616 063d 28b1 db3d 6e44 8f3d ac79 16bd
00000310: 22b9 ecbd 627c d93d a697 863d f4e4 67bd
00000320: 94c2 6c3d c8ec c9bd da94 933d f8df 613d
00000330: 00e4 6abb e03c db3b c0b6 55bd 84d6 bfbd
00000340: f80b 1f3d e0e3 af3b 1f3f 7abc c2a3 c53d
00000350: ece6 0dbd a413 1a3d 660c 803d 2a45 27bd
00000360: 3834 9f3c 0071 ad3c 24fc e8bd ba6a b23d
00000370: 00f7 3d3d 6004 a9bd d073 0dbd 3e5c f13d
00000380: 5a8a d0bd 3c25 523d da8c 2d3d c869 b03c
00000390: b467 b6bd 400c efbd 6267 ecbd 30d9 893d
000003a0: 2839 5dbd 3e85 6fbd 6050 ef3c 1ad7 8abc
000003b0: 18f3 dc3d 2665 eb3d 3e76 8e3c 5e25 b13d
000003c0: dac1 be3d 8aad 12bd ca68 f6bd 5239 4cbd
000003d0: 48fa 95bd a033 83bd 84b3 b23d 5248 f03d
000003e0: 5ce3 273d debd a8bd aab4 fd3d dad3 da3d
000003f0: 2051 a8bd 80fb 79bc 6619 ca3d 4092 bbbb
0.023104683 -0.047040015 0.10547401 -0.07136907 0.10755746 0.054582715 0.025012836 0.041451693
-0.08630727 0.014779717 -0.10618566 -0.10827796 0.0060137063 -0.110354275 0.05939363 -0.053464457
0.067927375 0.08276503 -0.05389966 -0.0042963177 -0.07504347 -0.09895839 0.018585727 -0.0010242164
-0.012034982 -0.010106862 0.085332125 -0.066776395 -0.095643 0.052764058 -0.069839835 -0.11543253
-0.018385887 -0.08216272 0.10372253 0.11478813 0.105828464 -0.08195825 -0.019809812 0.078729674
-0.1032449 0.12228274 0.028607264 0.08539578 0.006766796 0.12142132 0.112256765 0.12053712
-0.0433622 -0.091762245 0.046838507 -0.052262917 0.060118556 0.075519666 -0.028811738 0.0100521445
0.096453786 0.08577119 -0.07308933 -0.043966576 0.081787825 -0.010241151 -0.06668009 -0.0827747
-0.11263782 -0.0866729 -0.09494662 0.1107855 -0.12274307 -0.027210876 -0.12001631 0.022358835
0.04362519 0.08986661 -0.06371519 0.0540985 0.07725197 -0.058090255 0.10813221 0.12245132
0.04842192 0.0055462867 -0.053003043 -0.012829721 0.059477463 0.013270989 -0.06923911 0.094827175
-0.11720243 -0.0380356 0.08033253 0.023344278 0.060053587 -0.07149701 0.058342412 0.10237232
0.08030006 0.08139922 -0.018474951 0.08151315 -0.018433526 0.11842017 -0.019304544 -0.029904976
0.11379735 -0.07142149 0.01932384 -0.03610772 -0.036813036 0.071102455 -0.008132875 0.0966488
-0.029088467 -0.005511239 0.007051572 0.09605482 -0.039655313 -0.07991977 -0.0058511198 0.078435406
0.06358415 -0.033348814 0.00065380335 0.088854745 -0.11309284 0.06737611 0.10188554 0.11512074
0.09119074 -0.033692256 0.08440019 -0.011673063 0.038468957 -0.05449176 0.11825484 -0.10023871
-0.07310358 0.0835219 -0.06474826 0.10162765 -0.09366661 0.04641539 0.06024809 -0.05354011
-0.09340836 -0.00935021 0.054954037 -0.05596575 -0.0068449527 -0.027010947 -0.02616921 -0.086823344
-0.014923379 0.083298475 -0.03164181 0.11541021 0.063619375 0.04907936 -0.09761113 -0.09401511
0.07545085 -0.014101014 0.042157367 0.1174427 -0.085268304 0.010707691 -0.06369634 0.050010145
-0.122103974 -0.06606722 0.06777446 0.1205394 0.07406394 0.072684884 -0.055906594 -0.0737014
-0.031901687 0.0060397238 -0.10604508 0.03532684 -0.11200087 -0.119405776 0.038775504 0.05863671
0.120545015 0.061201155 0.017356664 0.014280766 -0.032512367 -0.017910361 0.1123863 -0.12415144
0.032736324 0.10727149 0.06995474 -0.03673713 -0.11558749 0.10619427 0.065718934 -0.05661483
0.05780275 -0.098596156 0.072061256 0.055145234 -0.0035841465 0.0066906065 -0.052176237 -0.093670875
0.038829774 0.005367741 -0.015273838 0.09650375 -0.034644052 0.037616387 0.06252365 -0.040837444
0.01943408 0.021172047 -0.11376217 0.08711763 0.046378136 -0.082527876 -0.034534276 0.11785172
-0.101826385 0.05130504 0.042370655 0.021534815 -0.089064986 -0.116722584 -0.11543156 0.06730878
-0.054009587 -0.05847668 0.02921313 -0.016948272 0.10788554 0.11493902 0.017390367 0.08649705
0.09314318 -0.03581003 -0.12031706 -0.049859352 -0.07323128 -0.06406331 0.08725646 0.11732544
0.04098831 -0.08239339 0.123879746 0.10684939 -0.08218598 -0.015257716 0.098681256 -0.0057242215

lstm.bias_ih_l0 f4 [256]
00000000: a403 36bd ae8c 87bd e456 0b3d 2a71 083d
00000010: 366c 25bb 403b f23c d8ef eebc 7628 e2bd
00000020: fe5b 743d 3c01 593d 0bc5 95bd 6607 d1bd
00000030: 3853 aebc ac1e 7b3d 9c28 c0bd b0cf 593d
00000040: e85b 17bd 305f adbd 9ea3 bb3d 5815 c73d
00000050: e8c5 1abd 1435 d53d 14bf 8dbd 1015 fabc
00000060: 7119 c43d 005e 65ba 78a7 fabd bc55 3fbd
00000070: 62a5 c03d 8c3e 3f3d e35a bf3d 8c20 7cbd
00000080: 443e 92bc 4abc e43d 691a f3bd 2ced 5fbd
00000090: 6abf f73d e0f5 89bd 644b f7bd de40 8d3d
000000a0: b6f3 9cbd 7882 78bd 4b70 cd3c 6a4b f83d
000000b0: e5ec f8bd 368e 8f3d 684b c93c b455 c4bd
000000c0: e28a f03d 78ec f53d 705d 783c 18bd 96bd
000000d0: dc43 bfbd d285 0abd 548b 31bd 0025 f03a
000000e0: 347c 223d 3435 3a3d 8092 a4bc 4092 91bb
000000f0: 9e93 7abd f0c8 93bd 647b aebd 6240 d5bd
00000100: b2d2 92bd 3c72 a6bd 5c1e d73d e8b0 bebd
00000110: bee4 d7bd 0071 76bc da7f bebd f1ee 063d
00000120: 8a41 f63c 02d3 bcbc 16b8 b93d aa87 8bbd
00000130: 3ec6 c73d 5024 6b3c c8e8 583d 6837 833d
00000140: 4e55 9e3d b8a0 f73c 145f c5bd 8089 783c
00000150: 40ed 8a3c 32c6 813d 9cf9 87bd de87 a6bd
00000160: fcfb 9cbd d074 253c 4422 de3d a4d3 6a3d
00000170: b6b0 a83d 17a5 88bd 78ff 58bd 4a37 edbd
00000180: 28a4 123d 82f5 943d 5c6d 1ebd 68ed 93bd
00000190: a33c babd ee77 ec3d de41 d33d a083 903c
000001a0: 3862 b73c 80cc 023b 7649 b0bd 7a08 ac3d
000001b0: d249 eebd 2251 13be ac94 88bd 68c7 a13d
000001c0: 3c7a a5bd 8a71 d83d 8445 d5bd 8a96 d1bd
000001d0: dc50 9d3d e6e8 fc3d 74a5 80bd c0ce 77bb
000001e0: deb7 b13d 1433 34bd 4a1e 85bd 08f7 bb3d
000001f0: 00ec 09bc 965a a13d f651 a13d 4ccf 433d
00000200: 9a52 bdbd f6c5 afbd ec19 c0bd 24dc 6fbd
00000210: 3cf0 69bd 65d4 abbd 28e1 8cbd a0ed 52bc
00000220: c8cc a3bd 009a e83b 3e41 f0bd e02f 34bd
00000230: 48c5 e23d 4c52 38bd 741a e5bd 00d0 71bb
00000240: 04e1 5fbd aaa3 b23d 4059 35bc 78c4 0b3d
00000250: 1850 763d fcaf 6a3d 2c87 70bd 802a e6bc
00000260: 1c3a 9abd 7c5f dd3d 6e01 ca3d 008a 01bd
00000270: 8050 243b 52b2 d6bd 2e34 9abd 4811 fabc
00000280: a0e1 b2bb f054 24bc f8f5 f83d 6e51 aebd
00000290: 4260 ad3d c0b7 aebc 707c fa3c 44d5 e83d
000002a0: 7cf1 243d 40cd f53d 3635 e23d 0a2f f3bd
000002b0: 807d 41bb 50c2 b8bd 607f d4bd ae56 983d
000002c0: 0475 aabd 0651 d93d 2203 e5bd c434 423d
000002d0: 407f bbbd 34e4 49bd b4cd 60bd 5ae0 b4bd
000002e0: 2058 cd3b 00ad 73bc a0a7 a6bc e801 2f3d
000002f0: 0068 89b9 04c5 10bd c064 81bc f086 bc3c
00000300: 3899 b33d 4cef 423c c0ec bfbb c679 fcbd
00000310: 409e ed3d 5031 933c 46cb 8e3d 38f6 f63d
00000320: a20a b4bd cb1f 143e 2b7f babd 4cbb 6bbd
00000330: 367e e9bd 6018 f7bc 9c0a 793d f0df 30bd
00000340: b457 54bd 3ad3 cb3d ddd2 3cbd 2ead a6bc
00000350: 80ac f93c 6082 b6bc f8f4 aa3c 50ed c4bd
00000360: c465 edbd d08a 1d3c 9f3e 18ba 2d4f 96bd
00000370: 00c4 613c bd1a d43d 367d d23d f2d4 bcbd
00000380: 47a0 fd3c 0060 8638 92e2 843d 828b 81bd
00000390: a460 8fbd fc5b d03d aa0d e7bd 1842 d1bd
000003a0: 4877 a23d 2bb1 923d 78fa ad3c f0d8 f03d
000003b0: 7b0c babd f0ca dbbd 28fe ca3c 4428 34bd
000003c0: 7cde c2bd 7b6c bdb9 4818 84bd e4da 453d
000003d0: 9419 e93d e07c 1f3d 3bc2 973b 70b1 f83c
000003e0: ee2d ccbd 8c6f 6fbd 0694 98bd e8a4 063d
000003f0: 5e0a c83d 88f5 27bd d29c ff3d 9cbe b13d
-0.044437066 -0.066186294 0.034018412 0.033311047 -0.00252415 0.029569268 -0.0291671 -0.110428736
0.059658043 0.052979693 -0.073129736 -0.10206489 -0.021279916 0.061308548 -0.093827456 0.05317658
-0.036952883 -0.08465421 0.09162067 0.09720868 -0.037786394 0.104105145 -0.06921211 -0.030527622
0.09575165 -0.0008749664 -0.122389734 -0.046712622 0.09406544 0.04669051 0.09343507 -0.061554477
-0.017851956 0.11168726 -0.11870272 -0.054669544 0.12097056 -0.0673635 -0.120749265 0.06897138
-0.07663672 -0.0606713 0.02507796 0.12123759 -0.12154559 0.070095465 0.02457209 -0.09586659
0.1174524 0.120079935 0.015158996 -0.073602855 -0.09339115 -0.033819027 -0.043345764 0.0018321574
0.03966923 0.045460895 -0.020089388 -0.004442483 -0.061175935 -0.0721606 -0.08519629 -0.10412671
-0.07169093 -0.08127257 0.105038375 -0.09311086 -0.10541676 -0.01504159 -0.093017295 0.032942716
0.030060548 -0.023049835 0.09068315 -0.06812985 0.097546086 0.014351919 0.052956372 0.06407052
0.07731114 0.030228004 -0.09637275 0.015169501 0.016958833 0.06336631 -0.06639406 -0.08131383
-0.0766525 0.010098651 0.108463794 0.057330742 0.0823683 -0.066721134 -0.05297801 -0.11582811
0.035801083 0.072733894 -0.038678512 -0.07223016 -0.09093597 0.11546312 0.103152975 0.017640889
0.022385702 0.0019958317 -0.086077616 0.08400054 -0.11635174 -0.14386418 -0.06668982 0.07899362
-0.08079955 0.10568531 -0.1041365 -0.10233791 0.07681438 0.12349109 -0.06281558 -0.0037812442
0.08677648 -0.043994024 -0.06499918 0.09177977 -0.008418083 0.07878606 0.07876961 0.047805116
-0.092442706 -0.0858268 -0.09379944 -0.05855955 -0.05711387 -0.083901204 -0.06878883 -0.012874037
-0.07998043 0.0070984364 -0.11731194 -0.04399097 0.11072785 -0.04500036 -0.11186686 -0.003689766
-0.05465795 0.08722623 -0.011068642 0.034122914 0.060134977 0.057296738 -0.05872266 -0.028096437
-0.07530615 0.10809228 0.09863554 -0.031625748 0.0025072396 -0.10483231 -0.07529484 -0.030525818
-0.0054590255 -0.010030016 0.1215629 -0.08511625 0.08465625 -0.021327853 0.030576915 0.11368802
0.04026936 0.12002039 0.110453054 -0.11874206 -0.0029524267 -0.09021437 -0.10375857 0.07438408
-0.083231 0.10611157 -0.11182238 0.047413602 -0.091551304 -0.049289897 -0.054883674 -0.08831854
0.006266609 -0.014872789 -0.020343602 0.042726427 -0.00026208162 -0.03534414 -0.015795112 0.023013562
0.087694585 0.011897873 -0.00585708 -0.12327914 0.116024494 0.01796785 0.06972365 0.12058681
-0.087910905 0.14465253 -0.091062866 -0.057551667 -0.11401026 -0.03016299 0.060801134 -0.043182313
-0.051841453 0.09952398 -0.046099532 -0.02034625 0.030477762 -0.022278965 0.020868763 -0.09615576
-0.11591676 0.009615615 -0.0005807671 -0.0733932 0.01377964 0.103566624 0.10277788 -0.092203036
0.030960215 6.407499e-05 0.06488527 -0.06325437 -0.070008546 0.101737946 -0.11281903 -0.102176845
0.07932907 0.07162698 0.021237597 0.117601275 -0.09084412 -0.10732067 0.024779394 -0.043983713
-0.09515092 -0.00036129713 -0.06449944 0.048304453 0.11381832 0.03893745 0.0046313084 0.030358046
-0.09969698 -0.05845599 -0.07450108 0.03287211 0.097676024 -0.04100564 0.12481083 0.08678934

lstm.bias_hh_l0 f4 [256]
00000000: d41a bc3d 30c4 7fbd 2afd f9bd 0325 a2bd
00000010: 6bfe fabc d8ba f63d 44d4 a83d 32eb fc3d
00000020: b0a2 da3d 20c0 aabb f0ef 7bbd 6cc9 303d
00000030: ba88 c13d 7049 c43d 909b 2cbd 42c1 8ebd
00000040: 60d0 fbbb 2810 5b3d 6e8c dc3d d8b8 0f3d
00000050: 1c0c 73bd 7082 5a3d 3e47 803d d8e8 1e3d
00000060: e020 843c 90f1 63bd 1068 47bc e6d9 8b3d
00000070: ace8 653d 18f7 9a3d d17c 8abd 72f7 d3bd
00000080: ceea bdbd 004c abbb 29a8 a93d c85e eb3c
00000090: e217 f53d 4059 523b f854 8c3c c070 983d
000000a0: ca63 a93d 8c9a 28bd 9c84 c9bd a0d1 b0bd
000000b0: 686a 5b3d d2e1 873d 60a4 bf3d 7806 143d
000000c0: 74fa 0cbd 5a9f 8b3d 0092 c639 be24 adbd
000000d0: 5c34 aabd fafe 3a3d 2884 96bc 8009 a9bc
000000e0: e879 ebbc 1033 a2bc 70d2 83bc 8830 a9bc
000000f0: 8e1e 8a3d 9de3 3fbd a878 c6bd dce0 a13d
00000100: 326e 85bd f628 e5bd e093 2b3c 743e c93d
00000110: d462 283d 485d e83c 7656 89bd b371 40bd
00000120: 8a50 f03d 12a8 bd3b c6b8 393d f015 79bd
00000130: d820 313d 80c7 85bd 8c3c 12bd c078 cabd
00000140: ce1c b4bd 5486 adbd 4071 f73d 2c4e 03bd
00000150: 746d 173d bcf3 c3bd b0a4 143c 00f6 ad3a
00000160: b6c0 d93d 08b4 473d ea3b abbd 920c c93d
00000170: a0fd 023c c370 bdbd 5c69 593d 4b5f c23c
00000180: 90cb 6ebd 884d 87bc 8434 40bd 4279 dcbd
00000190: 0d96 893d c2f4 94bd 8836 143d 60d6 9f3d
000001a0: 3086 efbd 0052 f63c 1468 84bd ba74 fe3d
000001b0: 606c 323c 5524 8abd 36f2 8d3d dced f0bd
000001c0: a379 ed3c ba56 e53d 6862 843c b86c e33c
000001d0: 9811 b8bc 88e7 bc3c 7046 543d 00c2 f7bd
000001e0: cab0 fc3d 08c4 fc3d 901e f6bd 423c aa3d
000001f0: 5cda dabd 10e7 d53c a4d9 9c3d b858 87bd
00000200: 10a3 44bc f673 b53d 127d fdbd b8b6 0e3d
00000210: 3652 f8bd 7a88 c33d 3e2f eebd 7086 643c
00000220: 50ac c63d 4cde 50bd e0fb f13b d4dc f63d
00000230: b060 793c f8ae e63c e057 dcbd 14de afbd
00000240: fcd4 d73d c866 d9bc 4cb5 a0bd b0d1 0ebd
00000250: 6c01 0ebd 5cdb b8bd 3811 b7bc 8024 83bb
00000260: 30f9 7dbc 16c1 e0bd 3c38 febd 72f3 903d
00000270: d268 953d 5ac9 ffbd cc7d f83d c8e8 8ebc
00000280: 8827 5fbd 80ea 6abb 9cff 053d b8de bebc
00000290: d8fc dcbc e82d 323d b012 b13c 82b8 dabd
000002a0: 0cbb f63d 601e a1bb d067 f93c 08c6 fabd
000002b0: 70c4 9cbc 5417 a93d 583b e73c 005b 823a
000002c0: 9085 bd3c c034 57bd 0c64 0b3d ba85 c73d
000002d0: d6ae 92bd 3c67 4fbd d03d e13d f896 c83d
000002e0: c493 b1bd bef7 d63d 7097 1bbc bc17 e63d
000002f0: ee4d 873d fce1 393d 00c8 9ebb 40a9 1bbb
00000300: a0d6 633d 81e5 e83d 6829 903c a420 08bd
00000310: dce5 9dbd 2ed8 803d b405 8ebd bca2 d33d
00000320: 2488 d83d 5155 9a3c 8aa2 5fba c08a 32bb
00000330: 301b 593c 844e 9e3d 447e d43d 68b6 803c
00000340: 1842 f1bd f8e8 1abd fb59 453d 72c2 b33c
00000350: fce9 233d 320e b23d 0008 c6b8 4853 00bd
00000360: 6ef5 b83d 380f b53d e35f 213c 621f 8f3d
00000370: c09d c9bd 4ff2 a3bd 24d2 103d c0b6 ea3b
00000380: b902 9dbc 32fe b33d e0be da3b 466d f0bd
00000390: 24d7 1fbd 9ce7 653d d2df dc3d 8e66 16bc
000003a0: d020 f03c 5d61 7e3c 019a cebd 2254 a9bd
000003b0: 631f e33d 703a 3d3d bade c3bd 462d eb3d
000003c0: 74d9 c5bd a498 95bd 1827 1c3d 80c1 5c3b
000003d0: 2c88 883d d2dc c23d 13c9 0dbc 1cc3 283d
000003e0: a0b4 3abd 8b8e b2bc 043c 00bd 0464 eebd
000003f0: 90dc 9e3d dc18 5fbd d20b ac3d c06c eabc
0.091848046 -0.06244296 -0.1220649 -0.07917216 -0.030638894 0.12047356 0.082436115 0.123495474
0.106755614 -0.0052108914 -0.06150812 0.04316084 0.09449907 0.095843196 -0.042140543 -0.06970455
-0.0076847523 0.053482205 0.10768972 0.03508839 -0.05933772 0.05334705 0.06263588 0.038796276
0.016128957 -0.055650294 -0.0121708065 0.0682867 0.056130096 0.07566661 -0.06762088 -0.10349931
-0.09273301 -0.0052275658 0.08284027 0.028731719 0.11967446 0.0032096654 0.01713036 0.0744338
0.082709864 -0.041163012 -0.09839746 -0.08633733 0.053568274 0.06634869 0.09357524 0.03613898
-0.03441854 0.06817503 0.0003787428 -0.08454274 -0.08310768 0.04565332 -0.018373564 -0.020634413
-0.028744653 -0.01979974 -0.016091555 -0.020653024 0.06744109 -0.04684793 -0.09690982 0.07904217
-0.06515159 -0.11189453 0.010472268 0.09826365 0.041109875 0.028364792 -0.06705944 -0.046983432
0.117341116 0.005787858 0.04534223 -0.060811937 0.043244213 -0.06532192 -0.035702273 -0.098863125
-0.087945566 -0.08472887 0.120821476 -0.032056972 0.036969617 -0.09567973 0.009072468 0.0013272166
0.1063246 0.048755676 -0.08361037 0.09816851 0.007995039 -0.09250023 0.053078994 0.02372708
-0.0582996 -0.016516462 -0.046925083 -0.107653156 0.06718073 -0.07273246 0.036184818 0.07804561
-0.11695516 0.030068398 -0.06465164 0.124246076 0.010890096 -0.06745211 0.06930964 -0.11764118
0.028988665 0.111981824 0.016160205 0.027761802 -0.022469327 0.023059621 0.051824987 -0.120975494
0.12338407 0.123420775 -0.12017548 0.083122745 -0.1068618 0.026111156 0.07658699 -0.06608719
-0.012001768 0.088600084 -0.12377371 0.034842223 -0.121250555 0.09547515 -0.116301045 0.013948068
0.09700835 -0.05099325 0.007384762 0.12053838 0.015220806 0.028159603 -0.10758948 -0.0858728
0.105386704 -0.026538268 -0.0784708 -0.034867942 -0.034669325 -0.090262145 -0.022347078 -0.004002154
-0.015501305 -0.10974328 -0.124130696 0.070776835 0.072953835 -0.12489577 0.12133369 -0.017444983
-0.05448106 -0.003584534 0.03271447 -0.02329956 -0.026976034 0.04350081 0.021615356 -0.10679723
0.12047395 -0.004916951 0.03044501 -0.12244803 -0.019136637 0.082564026 0.02822654 0.0009945333
0.023134977 -0.05254054 0.03403096 0.09742303 -0.071622536 -0.05063556 0.10998118 0.0979442
-0.08670762 0.10496472 -0.009496555 0.11234996 0.06606661 0.04538153 -0.004845619 -0.0023752004
0.055624604 0.113718994 0.017597869 -0.033234254 -0.07709858 0.06291233 -0.069346815 0.103337735
0.10572842 0.01883951 -0.0008530995 -0.0027243346 0.013251111 0.077298194 0.10375646 0.015711978
-0.117801845 -0.037819833 0.048181515 0.021943305 0.040018067 0.08694114 -9.442866e-05 -0.031329423
0.09031187 0.08840793 0.009849521 0.06988408 -0.098445415 -0.08005201 0.035356656 0.007162899
-0.019166337 0.08788718 0.006675586 -0.11739592 -0.039023533 0.056129083 0.10784878 -0.009179724
0.029312521 0.015526143 -0.10087968 -0.08268 0.11089971 0.04619831 -0.09563966 0.114832446
-0.096606165 -0.073045045 0.03812322 0.003368467 0.06666598 0.095147744 -0.008653897 0.041201696
-0.045582414 -0.021796485 -0.031307235 -0.1164017 0.07756913 -0.054467067 0.08400692 -0.02861631

lstm.weight_ih_l1 f4 [256, 64]
00000000: 5cc2 ffbf bf61 833e 9013 6e3d 26d5 80c0
00000010: eedc 4140 af1d 0a40 d962 da3f 2bc9 a340
00000020: 5ff2 d7bf 66ff 8ec0 4b93 04c1 f946 66c0
00000030: 00e1 a93c 009e a73c b89f 75bd c4dd b0bf
00000040: 20d0 c03f aada a8bd 7462 8dbe 7aef 4b3f
00000050: d6e6 92bd 7e8e cb3d e351 f140 485e c2be
00000060: 57cb 3340 3130 8fc0 e6c5 b5be fa9b b7bd
00000070: 284f 8fbd 0e7a 2040 d462 f1c0 b115 4f40
00000080: b341 2d40 b856 313d f25a 82bf 1d34 01c1
00000090: 758f b6bf 7e57 f2bd 28ac d7bf 17c4 2340
000000a0: 0087 bfbc bcb0 b9be 3b70 593d e90f ae3e
000000b0: 1fc4 ad3c 8715 383f 8106 cf3f 2e7a fbbe
000000c0: 45e6 a8bf fc83 c93f b48b 6cbd 22f3 ebbf
000000d0: 98f8 003f 363a 58bf 184b 7640 d0cc c8bc
000000e0: 30a4 263c 2b4c 61c0 8de5 03c0 2e86 b0c0
000000f0: 54bd b8bf b208 2141 be5c 85c0 66b9 fabd
00000100: 9339 58be 25e2 3fc0 4032 02bd bec2 843d
00000110: 75e8 5740 02df c83e 8e0f 2d40 faab 933f
00000120: 739f aa3e 87f6 6c40 7254 49c0 45ac 5f40
00000130: 0019 febd b0b5 63bd cc05 e43d 6323 98c0
00000140: a56c c040 b442 b23d d41a 613e d8d0 2b40
00000150: f654 b23d 006d 8d3d 05be 9e40 e042 02bf
00000160: 4c6e 49c0 fa5a 06c0 d360 9cbf f6b4 0abe
00000170: acc9 cbbd c64e 8e40 8468 b1bf 1f38 4040
00000180: 21f0 b8bf de88 d83d 3c22 35be b9b5 dec0
00000190: e724 9140 6a36 efbd 1c0a 30bf 4639 c840
000001a0: 6c15 943d a4dd 64bd ab25 5e3e 027d c23f
000001b0: bd9d 3ebd 3cee f6bf 3e84 713f b6e7 e5bf
000001c0: 3dd0 a9bd 5d92 09c0 fa7b 813d 21fb 6540
000001d0: 7bf2 a1c0 885e c03f 4d8f 913f 0cca 923d
000001e0: 627a dabd 4ee1 83c0 74e4 3ac0 0b9a 99c0
000001f0: 553b ed3e 061e 1841 79ae 70bf 8e6b a73d
00000200: 8898 aebf 6676 15c0 8ccb d1bd dfbe 27bf
00000210: 2894 cdbe 0920 a43f 48c6 963f 5d82 66be
00000220: 1ab2 8bc0 5ae8 6dbf ee43 8a3f 04de 7640
00000230: 9077 ab3c e2c7 bc3d 0c1f b7bd 11c3 2a3f
00000240: 45f0 4a40 182e ebbc 0c6c 79c0 ee7e 1140
00000250: f696 f1bd 3057 ec3d bcf2 4241 417a 8dc0
00000260: eac9 c13f 557f ffbf 72fb c5bf 503d a8bb
00000270: 5c67 f53d e348 d3bf 4494 89c0 a6e5 27c0
00000280: 5125 3dc0 8052 dcbd 469b 5cc0 312b 13c1
00000290: 1464 953f ca8b d23d e487 b0bf 699c 7040
000002a0: 5c6f 39bd 7729 d63f 10ef 1bbe 55bf 263f
000002b0: 7002 ae3c 79d5 96c0 2bb4 103f a3a9 7c40
000002c0: aff5 5840 3e9b 7840 109e 6a3c bad6 0c40
000002d0: 437d 98be 2237 3cc0 7a2d 8d40 8e58 bd3d
000002e0: 9e51 93bd 8295 f03f b484 3ec0 1abd c8be
000002f0: e067 28bf 2520 1841 db8a 85bf 3c05 933d
00000300: 032f 2abf 954f 0f40 b61a cdbd 6ad1 5ebf
00000310: 4b48 87bf 722c 1540 ce69 edbf 47f4 b33f
00000320: edf3 08c0 3714 02c0 a623 87c0 3cdc 773f
00000330: 4a01 8dbd 80a1 073d 16b1 f03d 0555 53c0
00000340: 3257 523f f07f 1cbd c14f e2bf d2a1 633f
00000350: 9611 bebd fc41 dd3d 73a8 2d40 0aa0 82bf
00000360: 4140 8ebd bd33 a5bf 4879 f5bf ca75 8e3d
00000370: bc5f 0a3d 2dbc c1bf cc48 65c0 87de 423f
00000380: 95b8 b23f 14d2 543d d69d 9bbf f2fd 1640
00000390: 8801 2941 72c8 f8bd 3fa4 1ec0 1683 833f
000003a0: 4637 99bd 8fec 0dbf a04d f1be 9384 c7bf
000003b0: 9a16 b43d 94e2 cabd 5c66 4ebf 53cc 2d3f
000003c0: e2bf bbbe e4b4 42bf 445d 36bd 3402 743e
000003d0: 9861 6b40 3934 1bc0 f816 853e c4d4 893d
000003e0: 0c4c dbbd 0005 01c0 8a45 80bf 8bc2 1a3e
000003f0: dbc8 0840 5a08 373f c178 a4bf 5238 aabd
-1.9981189 0.25660512 0.058124125 -4.026019 3.0291095 2.1580617 1.7061416 5.1183066
-1.6870841 -4.4686766 -8.28596 -3.5980818 0.020737171 0.020461082 -0.059966773 -1.3817677
1.5063515 -0.08244832 -0.27614176 0.7966229 -0.07172935 0.099392876 7.541246 -0.37962556
2.8092859 -4.4746327 -0.35502547 -0.08965297 -0.0699752 2.5074496 -7.543314 3.235699
2.707135 0.043295592 -1.0184004 -8.075223 -1.426253 -0.11833094 -1.6849413 2.5588434
-0.023379803 -0.3626765 0.053085547 0.33996513 0.021211682 0.7190785 1.617386 -0.49116653
-1.3195273 1.5743403 -0.05775042 -1.8433573 0.50379324 -0.8446382 3.8483334 -0.024511725
0.010170981 -3.520274 -2.0608857 -5.5163794 -1.4432778 10.064623 -4.167571 -0.12242393
-0.21115713 -2.9981778 -0.031786203 0.064824566 3.373563 0.3923264 2.7040744 1.1536858
0.33324775 3.7025468 -3.1457791 3.4948895 -0.12407112 -0.055593193 0.11133918 -4.7543197
6.0132623 0.08704129 0.2198289 2.6846218 0.08707611 0.06905556 4.9606957 -0.50883293
-3.147357 -2.0993028 -1.2217048 -0.13545594 -0.09950575 4.447116 -1.3860021 3.0034254
-1.4448282 0.1057298 -0.1768884 -6.959683 4.5357547 -0.116803005 -0.68765426 6.2569914
0.072306484 -0.055875435 0.21694057 1.5194399 -0.04653715 -1.9291453 0.9434241 -1.7961338
-0.082916714 -2.1495583 0.06322475 3.5934527 -5.0608497 1.5028849 1.1371857 0.07167444
-0.10667874 -4.121253 -2.9201937 -4.800054 0.4633433 9.50733 -0.94016224 0.08174811
-1.3640299 -2.3353515 -0.102439016 -0.6552562 -0.40152097 1.2822276 1.1779261 -0.22510667
-4.365491 -0.92932665 1.080198 3.8573008 0.020931035 0.09217812 -0.089414686 0.667039
3.170915 -0.028708503 -3.8972197 2.2733722 -0.11796372 0.11540067 12.184261 -4.4211736
1.5139744 -1.9960734 -1.546736 -0.005134262 0.11982605 -1.6506618 -4.299349 -2.6233916
-2.9554026 -0.10757923 -3.4469771 -9.198045 1.1671166 0.10280569 -1.379147 3.7595465
-0.045272216 1.6731404 -0.15227914 0.651357 0.021241397 -4.7135587 0.56524915 3.9478538
3.3899953 3.8844752 0.014319912 2.2006059 -0.29783067 -2.940865 4.4118013 0.09245406
-0.071933016 1.8795626 -2.9768496 -0.39206773 -0.657835 9.507848 -1.0433 0.07178733
-0.66477984 2.2392323 -0.1001486 -0.8703829 -1.0568937 2.3308377 -1.8547914 1.4058923
-2.139888 -2.0324838 -4.2231016 0.96820426 -0.068850115 0.033113003 0.117525265 -3.3020642
0.821643 -0.03820795 -1.7680589 0.88918793 -0.09280698 0.10803601 2.7134063 -1.020509
-0.06945849 -1.2906414 -1.9177637 0.0695606 0.033782706 -1.5135552 -3.5825682 0.761208
1.396258 0.05195816 -1.2157543 2.3592496 10.562874 -0.12147607 -2.4787748 1.0274379
-0.07481246 -0.55439085 -0.47129536 -1.5587333 0.087933734 -0.099064976 -0.8062494 0.678899
-0.36669832 -0.7605727 -0.04452254 0.23828965 3.6778316 -2.4250624 0.25994086 0.06730035
-0.10707864 -2.0159302 -1.0021222 0.15113275 2.1372592 0.7149712 -1.2849351 -0.083115235

lstm.weight_hh_l1 f4 [256, 64]
00000000: e24c bd3d 56ae aa3e ab54 92bf 135e 0b3f
00000010: eca3 f23f 653e 8a3e 167c aa3f 6ad4 d83f
00000020: 09e2 0ec0 4604 2ac0 dce5 71bd f511 53bf
00000030: a2c7 3740 2eca b03d e7ab 863f 5731 913f
00000040: bbbb 1dbf 3ed6 0bbe 8a9a 9f40 d66a 7640
00000050: 99ba a940 7adc 5cc0 be5a 8f3f 9ee0 bd40
00000060: 2905 f33f 2ab5 a4bf 313e 2440 a246 eabe
00000070: 1cbe be40 6edf 573f 4bf6 b0bd 49d6 23c0
00000080: b18c 17bf 10e0 3f3f e728 ad40 0c06 0440
00000090: 5f9c 873f d4e5 2c40 d7f5 d240 4d89 ac40
000000a0: 9648 fe3f 60f3 8540 f443 563f eafc 1e40
000000b0: 9e5e e23e 41f5 96c0 829c f1be 199e 8b40
000000c0: affe b43f 7e40 4240 0406 42bf c4a0 82c0
000000d0: d709 0abf 8578 2cc0 5022 0140 24b8 e43f
000000e0: 53e0 eabd 9037 dc3f d84d 8640 8b01 77bf
000000f0: 7017 353f d146 a4bd 330d 6bbf 5814 97bd
00000100: 1e22 2c3f d8b2 fbbf b281 06bf 8d1d 093e
00000110: 1d23 5dbe 053d e13f 9d65 3dbf 2c25 c4bf
00000120: c727 cc3f 17d4 1d3f 4aad 9cbe e7ed a6c0
00000130: dd4c 1bc0 7309 003f feda 8cc0 e0ef 4ec0
00000140: ccb2 5340 f612 4640 c9ee f03f a77b 4040
00000150: 2009 36bf 1633 c63e 9370 e63f 8a58 c33e
00000160: 9a75 b0be 08b8 f03f 9937 1640 52cc babf
00000170: 3a67 f13f 5096 0e40 6df4 b5bf 593e 1640
00000180: 1e92 acc0 1427 efbf b43a 8740 12ab 8d40
00000190: e166 bd40 676b 1540 a226 1b40 7d75 af3c
000001a0: ea40 7f40 2308 dc3f c477 39bf a663 413f
000001b0: 4526 1d40 68df 8ec0 63bf c240 9c93 123f
000001c0: 3c78 a540 faab 27c0 7a94 51bf bb4a 09be
000001d0: e67e 26bf 8dba 833e e12a 5540 5d91 85bf
000001e0: 7178 bfc0 ddf2 bbc0 e5b4 c63f 20d9 ecbf
000001f0: b677 9ebe 35af b9bf 43a5 2ac0 ff67 6240
00000200: 5817 093d 3662 a5bf 961d 873f 6cb4 85bf
00000210: 5cff 0240 6ddc e03e 7769 63c0 dc96 8440
00000220: 1a9f 4140 beed 8740 3890 2ec0 d632 8ec0
00000230: 85f4 b33f 327a f3bf f3aa 09bf 39c1 d5bf
00000240: 1de1 9240 0eb2 07c0 47e2 42bf f33e 1340
00000250: e8c6 e5bf 35e8 ca3e fdf9 8a3f 697d 3d40
00000260: 34bf 91c0 ddab 933e cf63 213f 00d2 2bbd
00000270: fe55 88bf d9dd 78c0 17e7 80c0 0e6b 58c0
00000280: b7e5 0540 50ed 5ebf ece1 293f 19e9 0540
00000290: b7f3 883f d21d a5bf 4513 be3f 1ad1 9bbf
000002a0: 8d07 e53f 7850 efbe af37 f4bf f9cc c4bf
000002b0: 1a82 efbe 305e d33f 9a36 f5be abae f73d
000002c0: 7957 4640 0036 0a41 608f 83c0 6e25 71c0
000002d0: 47f0 32bf b34b 943f 9966 3240 47bd 8ac0
000002e0: 09a0 cdbf 8b82 6a40 c579 6d40 3ac5 2440
000002f0: a6ff 80c0 5444 5dbf 99c8 6340 af42 a840
00000300: 20c3 14c0 87e9 de3f 09db c5be f2a8 17bf
00000310: 1622 d640 a8ec 7c40 9fd6 17c0 68c2 4740
00000320: e7f3 71bf c4e8 1abd 3646 91bf 04d2 7dbe
00000330: 5500 99bf dab4 4140 873e 473f 1dbb 78be
00000340: 3bad 75bf 3ea2 4640 4060 98bf 341d 42bf
00000350: 305e c63e 4cf5 86c0 e150 0f40 0c7b 9340
00000360: 156f aabf 58d2 3c40 20c7 8bc0 6d2b 84c0
00000370: ac65 163f eb28 9b40 85fc 06bf e55c 13bf
00000380: 14bc 1ec0 4778 8bc0 f799 4bc0 f16f 4840
00000390: 8d48 9e40 7b2b 1d40 7826 d83f a5d2 ddbe
000003a0: c8fa fcbe e1d6 9c40 b4ae 16bf 5aa2 a640
000003b0: 37d4 3640 dbe0 18c0 5c2d 8d3f 276e 8440
000003c0: c642 8e40 e920 48be 31b2 1ebf 1b06 04c0
000003d0: d2d4 00bf 21a9 533d bf33 2d40 fa87 4abf
000003e0: 44dc 64c0 6764 dbbf b64a 15c0 6c75 dac0
000003f0: f464 10c0 ace3 e4bf b4e2 82c0 47c7 ad3f
0.0924318 0.33336133 -1.1432089 0.5444042 1.8956275 0.27000728 1.3319118 1.6939824
-2.232546 -2.6565108 -0.0590571 -0.82449275 2.8715596 0.08632313 1.052121 1.1343182
-0.6161458 -0.13655946 4.9876146 3.8502707 5.304028 -3.4509568 1.1199567 5.933669
1.898595 -1.2867787 2.5662959 -0.45757014 5.9607067 0.843253 -0.08640727 -2.559954
-0.59199053 0.7495127 5.411243 2.062869 1.0594596 2.7015276 6.5925097 5.3917603
1.9865901 4.185959 0.8369744 2.4841866 0.44212812 -4.717438 -0.47189718 4.363049
1.4140223 3.0351863 -0.7579043 -4.0821247 -0.53921264 -2.694856 2.0177193 1.7868695
-0.11468568 1.7204456 4.1970024 -0.9648673 0.7073889 -0.0802132 -0.91817015 -0.07376927
0.6723956 -1.9663954 -0.5254165 0.13390179 -0.21595426 1.7596747 -0.73983175 -1.5323844
1.5949639 0.6165175 -0.3060096 -5.216541 -2.4265664 0.5001442 -4.4017324 -3.2333908
3.307788 3.0949073 1.8822871 3.0075471 -0.71107674 0.3871085 1.8003105 0.38153487
-0.34464723 1.8806162 2.3471434 -1.4593604 1.8859627 2.2279243 -1.4215218 2.3475554
-5.3928366 -1.8683801 4.225916 4.4271326 5.9188085 2.3346803 2.424233 0.021418327
3.988337 1.7189983 -0.7244837 0.75542676 2.4554608 -4.4647713 6.0858626 0.57256484
5.170927 -2.6198716 -0.8186718 -0.13407414 -0.6503738 0.25728264 3.3307421 -1.0434986
-5.9834523 -5.8733964 1.5523955 -1.8503761 -0.30950707 -1.4506594 -2.6663368 3.5375974
0.033469528 -1.2920597 1.0555904 -1.0445685 2.046836 0.43918172 -3.553312 4.1434155
3.0253358 4.2477713 -2.7275524 -4.4437056 1.4058996 -1.9021666 -0.5377647 -1.6699592
4.5899796 -2.1202426 -0.7612652 2.300717 -1.7951326 0.39630285 1.085754 2.9607794
-4.55459 0.2884206 0.6304292 -0.04194832 -1.0651243 -3.8885405 -4.028209 -3.381534
2.0921457 -0.8708086 0.66360354 2.0923522 1.0699376 -1.2899725 1.484963 -1.2173188
1.7892929 -0.4674108 -1.9079493 -1.5375053 -0.46778947 1.6513119 -0.4789322 0.12093862
3.099089 8.638184 -4.111252 -3.7679095 -0.69897884 1.1585602 2.787512 -4.335605
-1.6064464 3.6642177 3.7105572 2.5745378 -4.031207 -0.86432385 3.5591185 5.25814
-2.3244095 1.7415017 -0.38643673 -0.59242165 6.691661 3.9519444 -2.3724744 3.1212406
-0.9451279 -0.03781964 -1.1349552 -0.24787146 -1.1953226 3.0266633 0.77829784 -0.24290128
-0.95967454 3.1036525 -1.1904373 -0.7582581 0.38743734 -4.2174435 2.2393115 4.6087704
-1.331515 2.9503384 -4.3680573 -4.130301 0.5874889 4.848745 -0.52729064 -0.5756362
-2.4802294 -4.3584323 -3.1812723 3.1318324 4.9463563 2.4557788 1.688674 -0.43324772
-0.4941008 4.9012303 -0.58860326 5.2073183 2.8567026 -2.388724 1.1029468 4.1384463
4.445651 -0.19543804 -0.6199065 -2.0628726 -0.5032474 0.051674966 2.7062833 -0.79113734
-3.575944 -1.7140015 -2.332685 -6.8268337 -2.2561617 -1.788198 -4.0901737 1.357644

lstm.bias_ih_l1 f4 [256]
00000000: eddc 703f 6d8f 15c0 f033 5bc0 8d3f 0140
00000010: b62e 5d40 4c74 a43d e5bf 0440 43e0 333e
00000020: 59a8 87bf b2dc e6bd 4ef4 3440 91ee fdbf
00000030: 5bb8 c43f ab79 1e40 caaf 1040 f6b6 bebd
00000040: 6d24 ffbf 970e 0c40 23ef 3b40 8b92 e03f
00000050: 4c3a 80c0 c2dc 1240 483a 97be e9a4 4c40
00000060: a873 77bf 5855 343d 2591 f33f 0c32 ffbf
00000070: 86a9 753f 7958 02c0 f2db 01bf adb7 1cc0
00000080: 2206 8640 4c41 e93e ff4e 6c40 e545 bbbf
00000090: 3592 5fbf ab73 6740 8b85 a93d 96e5 2b40
000000a0: 7d8b 02c0 a00f d83f e936 a3c0 5724 55c0
000000b0: e139 1fc0 00b6 64bf 5699 4040 f8d0 013e
000000c0: 4f33 b5bf ad7b 24c0 ce52 2d40 b107 343f
000000d0: 4ece 1540 c5b3 bc3f e931 543e a76c 503f
000000e0: e3bb eb3e d2c6 08be 8c3f 9abf 15e6 63c0
000000f0: f266 8c3f d23a ce3f 7c61 0d40 2375 db3f
00000100: e6f6 85c0 87f8 d1bf 4430 ae3f 165d 0fbf
00000110: aad1 b0bd ca2b 12bf 628e d4bf 562f c4bf
00000120: 876f 953f acd3 14c0 b785 a73f 20cb 4cbf
00000130: 0fc8 4e40 3472 0abf ec6f 82c0 1026 0ec0
00000140: 5837 35bd 0698 f73e ecac d43f 2b90 c33f
00000150: cabf 1ec0 21ab 17bf 0260 77c0 ea2e 84c0
00000160: f9b3 7540 694d b3bf df1d 9abf ff0d 78bf
00000170: b490 9ac0 9caf edbf 09ef bf3f 9901 aa3e
00000180: 00f4 4ec0 5c18 dd3f 211e 4cbf adf5 47bf
00000190: 577d c9be baa9 f23e 8501 b23c 037b 99be
000001a0: 0cd6 05c0 6ea9 ef3f 6048 803f d811 0ac0
000001b0: 46b0 1b40 6d1d f23f 3bb6 babe 1398 3940
000001c0: 2835 f23d 8c80 d43f 0d4b 67c0 ed23 473f
000001d0: e49b 173f fcea 0fbf ff63 b2bf 5e3e 84c0
000001e0: 2d8a 77bf b685 86c0 d10e 0cc0 fb92 d7bf
000001f0: c6c7 3ac0 83d8 6fbf e269 4440 5b67 0e40
00000200: a404 9dbe c04d f8bf 8481 b23f 4eb2 c83f
00000210: e5e4 7640 e9bc 4140 cbe0 8d3f 67ed 10c0
00000220: 3075 a4bf 19ed 57c0 4b94 803f 4c89 cabb
00000230: 22fe febf 652a 86bc ba41 003e 6ef2 003f
00000240: 5dcb 9abf 1b6c 4040 28d9 39c0 615b 3a3f
00000250: 6d43 273f e912 513f 7fd1 e23f 636c 4b40
00000260: e1d7 2840 9e33 01be b65b d5be d759 08c0
00000270: 35ac 0c3f fa4f 82bf 8a13 dabe 1058 e83f
00000280: 6d2b 32c0 04c7 a0bf 794e d23f ef99 653e
00000290: c913 bb3f 9f1e aebc a59b 4840 d7b7 5c3f
000002a0: 5bf4 3540 9ae1 5b3f 69d0 e23f 121e 613f
000002b0: 48f3 28bf d7f4 4c3f 81bd 843f b31d d23e
000002c0: 9efd 953f 8b22 dc3f 51c3 f43d 891b d73f
000002d0: 99cd eabe c3a9 2f40 6bb0 2e3f e7db 97bf
000002e0: 7b1d 47bf 6fce 96bf 048e edbf d716 07c0
000002f0: 1521 0640 21e8 a5bf dbbf d5be cc6c a83f
00000300: 67b0 d03e af08 1a40 e37a 0ec0 5c72 88bf
00000310: 1f19 b03f 924c ee3d dd6c ad3f 261b ddbf
00000320: 621e 1740 b1bf ea3f 51b0 05bf 4f0a 6240
00000330: 515a 0f3f 549e f13e f480 953f 54cb 893f
00000340: a985 b2bf db03 1d3f cb46 96bf 0a15 82bb
00000350: e7fe c6bf 8d3d 3d40 18e7 c2bf 58e7 e33f
00000360: 71cd 16c0 6cf3 00c0 2a42 8dbf 90f3 6d40
00000370: dd39 8e3f bf36 05bf 433d bebf e335 07c0
00000380: ad09 da3e 4796 7b3c 3d3b a53c 3f8f 123f
00000390: 7445 12c0 fec2 e9bf 8bad 69be 33e4 2fbf
000003a0: f29e da3f 6e83 953f 80ff 3740 6d74 4140
000003b0: f2b6 2040 e90f 9d3f 7e74 04c0 3285 dc3e
000003c0: 9deb 32c0 7b1d d2bf d7aa e33f 6b2f e43f
000003d0: 975a aebe 2b66 b9bf d399 6fc0 c429 9140
000003e0: 804c 86c0 1f50 ff3f b99e 5a3f eff9 7640
000003f0: ba53 1bc0 ee78 303e 813b bc3f a16a f03e
0.94087106 -2.336879 -3.425045 2.0195038 3.455976 0.08029994 2.0742123 0.17566018
-1.0598251 -0.11272563 2.8274112 -1.983843 1.5368761 2.476176 2.2607293 -0.09312241
-1.9932991 2.1883905 2.9364707 1.7544721 -4.0071163 2.294724 -0.29536653 3.1975653
-0.9666085 0.044026703 1.902867 -1.9937148 0.959618 -2.03665 -0.50726235 -2.4487107
4.1882486 0.4555763 3.6923215 -1.4630705 -0.8733247 3.6164348 0.082774244 2.6858878
-2.0397637 1.6879768 -5.100453 -3.330343 -2.4879076 -0.8934021 3.009359 0.12677372
-1.4156283 -2.5700486 2.708179 0.70324236 2.3407168 1.4742361 0.20722164 0.8141579
0.46041784 -0.13357094 -1.2050643 -3.560918 1.0968916 1.61117 2.209075 1.7145122
-4.186389 -1.640397 1.360848 -0.5600141 -0.0863374 -0.57098067 -1.6605952 -1.5326946
1.167466 -2.3254194 1.3087682 -0.79997444 3.2309606 -0.5408051 -4.0761623 -2.2210732
-0.044242233 0.48358172 1.6615272 1.5278372 -2.4804559 -0.59245497 -3.8652349 -4.130727
3.8391097 -1.4007999 -1.2040366 -0.96896356 -4.830164 -1.8569217 1.4994823 0.33204344
-3.2336426 1.7273059 -0.79733473 -0.78109246 -0.3935344 0.47395116 0.02172924 -0.29976663
-2.0911894 1.8723581 1.0022087 -2.157339 2.4326339 1.891523 -0.36467156 2.8999069
0.11826545 1.6601729 -3.6139557 0.77789193 0.59222245 -0.5621793 -1.3936766 -4.132613
-0.96695215 -4.203822 -2.1884043 -1.684173 -2.9184432 -0.93689746 3.0689626 2.2250583
-0.30667603 -1.9398727 1.3945775 1.5679414 3.8577206 3.0271552 1.1084226 -2.26449
-1.2848263 -3.3738463 1.0045255 -0.006180918 -1.9921305 -0.016377637 0.12525073 0.5036992
-1.2093312 3.0065982 -2.9038792 0.72795683 0.6533726 0.8166948 1.7720183 3.1784904
2.6381762 -0.12617347 -0.41671532 -2.1304834 0.5495027 -1.0180657 -0.42593032 1.8151875
-2.7839005 -1.2560735 1.6430198 0.22422002 1.4615413 -0.021254836 3.1344998 0.8621802
2.8430393 0.85891116 1.7719852 0.8793651 -0.6599622 0.80061096 1.0370332 0.41038284
1.1718023 1.7198042 0.11951316 1.6805278 -0.45859984 2.7447364 0.6823794 -1.1863984
-0.7777936 -1.1781749 -1.8558965 -2.110769 2.0957692 -1.2961465 -0.41747937 1.3158202
0.40759584 2.40678 -2.2262504 -1.06599 1.3757666 0.116356984 1.3548847 -1.727391
2.3612294 1.833975 -0.5222216 3.5318792 0.55997187 0.47191107 1.1679978 1.0765176
-1.394704 0.6133401 -1.1740354 -0.003969793 -1.554654 2.9568818 -1.5226774 1.7804976
-2.3562891 -2.0148573 -1.1035817 3.7179909 1.1111408 -0.5203666 -1.4862446 -2.112664
0.42585507 0.015355653 0.020169849 0.57249826 -2.285489 -1.8262632 -0.22820108 -0.6870758
1.7079756 1.1680734 2.8749695 3.022731 2.511166 1.227048 -2.06961 0.4307037
-2.7956307 -1.6415247 1.7786511 1.7826971 -0.3405349 -1.4484304 -3.7437637 4.5363483
-4.1968384 1.9946326 0.8539844 3.8590047 -2.4269853 0.17233631 1.4705659 0.4695635

lstm.bias_hh_l1 f4 [256]
00000000: fd8f 4c3f 9936 12c0 8745 67c0 e12a fe3f
00000010: 6fe3 5740 cc15 5ebd 1b02 0040 8e41 b53c
00000020: 67ec 8ebf 5670 d1bd 4293 3540 6c2f febf
00000030: c7e5 b33f 362e 1d40 363e 1740 4881 cbbd
00000040: b258 f4bf ad02 0a40 d45d 4340 df7b e43f
00000050: cd97 85c0 fb10 1340 b423 bebe e2d6 4740
00000060: 24b4 85bf 655b 8bbc 7898 f53f 6eb0 03c0
00000070: add1 6e3f 87dc 0ec0 2572 e8be 1b8d 21c0
00000080: bdea 8840 6d96 013f 6cfc 7540 1afe bdbf
00000090: f383 48bf df6e 6b40 5fb3 29bd 1c91 2d40
000000a0: 787f 05c0 b2db ea3f 72ed a8c0 76eb 4fc0
000000b0: 6754 1bc0 dc01 83bf 92a8 3b40 d673 fabc
000000c0: 47b1 c4bf ecdd 1fc0 8d18 2c40 8f3b 523f
000000d0: d318 1b40 321d c33f e50b 4f3e 8685 733f
000000e0: 44e6 b93e e131 66be 9a4c abbf 46f9 5cc0
000000f0: c2b2 9c3f ae3c d23f c335 1440 ee5f db3f
00000100: f7fa 83c0 a39e b7bf d287 a53f 2f1f 09bf
00000110: a0f1 4cbe fa52 25bf 5ed0 dbbf cd7d b1bf
00000120: baa7 983f cc5b 15c0 3926 b23f 6749 7bbf
00000130: 3b1c 4a40 ef74 19bf ef3e 83c0 7257 15c0
00000140: 31c6 88bd 3d49 1a3f 64fd c43f e154 bb3f
00000150: 944f 19c0 94a5 1abf 7778 7bc0 2aa0 83c0
00000160: 89ef 6f40 85bc 9ebf 81fa 8fbf f273 48bf
00000170: 36a6 9ac0 98e3 e3bf e5dc d23f d2f1 913e
00000180: 3251 51c0 63f7 ef3f ed89 22bf a96f 4dbf
00000190: 85e1 e1be 39b3 ce3e ba0c 7bbd e4aa 70be
000001a0: 14eb 0ec0 1184 d93f fd27 993f e993 07c0
000001b0: 7fa0 1440 47b2 dd3f e8d9 e5be 6a31 2e40
000001c0: 9be5 c1bc fc6c c83f 1cf6 60c0 0d7f 7b3f
000001d0: c4b1 e43e ee98 24bf 8911 bebf 44ae 8ac0
000001e0: a808 66bf 5b65 7ec0 20d5 06c0 6a51 babf
000001f0: 2396 45c0 9065 83bf 8e37 4540 825c 0f40
00000200: d1b7 4dbe 34f8 f8bf 509d a13f 534e c73f
00000210: 0306 7640 f339 4340 4f32 943f 46a9 1dc0
00000220: a01a adbf 6626 5bc0 16b5 6a3f cc7a 7cbe
00000230: c7f2 04c0 39fc b33d 5fff c13b 68f3 213f
00000240: 472c 93bf 3afc 3d40 a95e 3cc0 5e46 493f
00000250: 1ce2 293f 6c72 693f c62c d73f f29d 4c40
00000260: e769 3340 fd75 1ebe 75d0 bbbe b006 ffbf
00000270: 3757 fd3e f0ab 8fbf 7567 d0be 695f fd3f
00000280: 50db 38c0 3657 9ebf 4ca0 c63f 22a8 133e
00000290: 59a0 ce3f 0645 37bd 6511 4e40 3ecb 3a3f
000002a0: 389a 3940 e2d1 4b3f 7e64 e53f 261a 643f
000002b0: dfb1 05bf 9219 433f 2e37 843f 8f8b 723e
000002c0: 15a2 873f 4c06 e53f 79a7 25bd 427b d43f
000002d0: 8cdb 1bbf e0e5 2e40 5229 2c3f e70c 94bf
000002e0: fe39 6ebf 8d0a b4bf 4fd7 e5bf 3694 0ec0
000002f0: 993f 1440 be63 abbf 4801 a8be 64c2 b83f
00000300: 2f0c c53e 7ad3 2140 c55d 17c0 b2cd 9dbf
00000310: 7319 973f f7c1 9c3e 8f40 ab3f ff31 dcbf
00000320: 2c81 1540 0985 dc3f b820 02bf af47 6240
00000330: d89a 123f ba87 153f eb23 a73f 7b66 743f
00000340: 6575 acbf bdcc 2d3f 9192 91bf 1157 ca3d
00000350: 7871 c7bf edfb 3f40 dd1d bbbf 9b50 e63f
00000360: 6407 18c0 d917 f8bf 6fb7 6fbf b22a 7240
00000370: 073a a13f 181b d7be c688 b6bf 69d6 07c0
00000380: 7b5c e13e 06cc 0dbe 7f28 e8bd f4ff 123f
00000390: 06fe 14c0 7f41 d8bf 8e04 96bd 9fe3 2fbf
000003a0: 7fa9 ea3f 58a3 973f f694 3740 1bc8 4340
000003b0: 3fce 2940 ccec 8a3f 85cb 05c0 a2cd cd3e
000003c0: d070 30c0 1cfd d0bf de23 fb3f a8f9 d13f
000003d0: 2620 8dbe 3a97 b7bf 0414 6fc0 32c2 9240
000003e0: 7665 88c0 2ff4 e63f 823f 863f ac0b 7440
000003f0: 9b59 18c0 1c7e c93d 1a58 a53f 719a 033f
0.7990721 -2.2845824 -3.6136186 1.9856836 3.3732564 -0.054220006 2.0001285 0.022125985
-1.1165894 -0.102265045 2.837113 -1.9858222 1.4054497 2.4559455 2.363172 -0.09936768
-1.9089568 2.1564133 3.0526018 1.7850302 -4.1747804 2.2979114 -0.37136614 3.1224904
-1.04456 -0.017011354 1.9187155 -2.0576434 0.9328869 -2.23221 -0.45399585 -2.5242374
4.2786546 0.50620157 3.8435316 -1.4843171 -0.7832634 3.678642 -0.041430827 2.7119818
-2.085905 1.8348296 -5.278985 -3.2487464 -2.4270265 -1.0234942 2.9321637 -0.030572813
-1.5366601 -2.49792 2.6889985 0.8212213 2.4233902 1.5243285 0.20219381 0.95125616
0.3630849 -0.22479965 -1.3382752 -3.4527144 1.2242053 1.6424768 2.3157814 1.713865
-4.1243854 -1.4345287 1.2932074 -0.5356321 -0.20014048 -0.6457974 -1.7172964 -1.3866516
1.1926186 -2.3337278 1.3917915 -0.9815888 3.157973 -0.5994405 -4.1014323 -2.3334622
-0.06678427 0.60268 1.5389829 1.4635278 -2.395482 -0.604089 -3.9292276 -4.1133013
3.748995 -1.2401282 -1.1248323 -0.7830192 -4.8327894 -1.7803831 1.6473662 0.28504807
-3.2705808 1.8747371 -0.6349171 -0.80248505 -0.4411737 0.4037111 -0.061291434 -0.2350269
-2.233098 1.6993428 1.1965328 -2.1184027 2.322296 1.7320031 -0.44892812 2.721766
-0.023669055 1.5658259 -3.5150213 0.9824074 0.44666874 -0.6429585 -1.4849101 -4.3337727
-0.8985696 -3.9749362 -2.106758 -1.4556096 -3.0872886 -1.026537 3.0815158 2.2400212
-0.20089652 -1.9450746 1.2626133 1.5570778 3.844117 3.050412 1.1577853 -2.4634566
-1.352375 -3.4242187 0.91682565 -0.24656218 -2.077318 0.08788342 0.005920335 0.63262033
-1.1497887 2.9685197 -2.9432776 0.78622997 0.6636064 0.9119022 1.6810539 3.1971402
2.8033388 -0.15474696 -0.36682478 -1.9923916 0.49480602 -1.1224346 -0.4070393 1.9794742
-2.8883858 -1.2370365 1.5517669 0.14419606 1.6142684 -0.04474356 3.2198117 0.7296637
2.9000378 0.7961713 1.7921293 0.891024 -0.52224535 0.7621089 1.032934 0.2368605
1.0596339 1.7892547 -0.040442917 1.6600115 -0.60881877 2.7327805 0.6725055 -1.1566437
-0.9305724 -1.406572 -1.7956332 -2.227796 2.3163817 -1.3389814 -0.32813478 1.4434323
0.38485858 2.5285325 -2.3650982 -1.2328398 1.1804641 0.30616733 1.3379077 -1.7202758
2.336009 1.7228099 -0.50831175 3.5356252 0.5726752 0.5841023 1.3057836 0.9546887
-1.3473326 0.6789053 -1.1372854 0.09879888 -1.5581503 2.9997513 -1.4618489 1.7993349
-2.375451 -1.9382278 -0.9363927 3.783856 1.2595834 -0.42012858 -1.426049 -2.1224616
0.4401587 -0.1384736 -0.11335849 0.57421803 -2.3280044 -1.6894988 -0.073250875 -0.687067
1.8332976 1.1846724 2.8684669 3.0590885 2.6532133 1.0853515 -2.0905468 0.40195948
-2.7568855 -1.6327243 1.9620321 1.6404314 -0.2756359 -1.4343026 -3.7355967 4.5862055
-4.2623854 1.8043269 1.0488131 3.8132124 -2.380469 0.098385066 1.2917511 0.51407534
