models/gru_trained_model.pth (torch, 115429 bytes, 9 tensors)

gru.weight_ih_l0 f4 [192, 56]
00000000: 40d8 503d 084c 1cbd a0ef eebc 9093 68bc
00000010: 203a fcbc d2e3 cfbd 2c92 cebd 403d 07bd
00000020: 3474 86bd 28bb b53c 0c92 66bd c2be a53d
00000030: 4c36 c7bd 3809 aa3c 8015 f3bd a0e8 5cbd
00000040: bc84 f4bd 5887 28bd 6eed f13d 9468 d7bd
00000050: 92a8 c1bd 106a 953c 6894 e13d 74ae a4bd
00000060: d099 283d 18ec 013d 4891 f0bd 3acc dd3d
00000070: 04cb a23d 085d 043d 3eb1 bdbd 80fc 033b
00000080: a486 9d3d cc2c ca3d 2452 efbd 94bb 8ebd
00000090: 1aff ff3d b48d 82bd 3e65 f2bd 3c91 2dbd
000000a0: f4e7 9abd 8c1a e83d e8b8 eebd 9017 393d
000000b0: 905f abbd 7ccc 303d 845f 17bd 48dc aa3d
000000c0: 8055 f5bc 18e5 9b3c 1a30 afbd 1e56 9ebd
000000d0: e26f fdbd 98b5 79bd 36f6 a2bd da69 b23d
000000e0: 0e82 c9bd 1ce9 c73d 405b 56bd 7e3a d1bd
000000f0: 403c b7bb d86e 2f3d 402d b83b 9a62 92bd
00000100: 4ac3 de3d b0d7 40bc b8d0 723d eae8 893d
00000110: 6626 843d 5009 45bd a829 e8bc 70c7 10bc
00000120: ca7c 97bd c80c c6bd 9813 9c3d ec6b abbd
00000130: e4d0 75bd 4afb 8cbd 20fd fb3c 50cf 30bc
00000140: 5c58 3cbd 00e9 28ba b411 97bd 1010 7abc
00000150: f215 c2bd 2870 163d c098 e2bb 1c33 263d
00000160: b039 81bd f8a4 20bd 488a 423d f4f3 68bd
00000170: 1ee1 98bd a887 8bbd 5014 c23d 4ce1 88bd
00000180: f4a0 fb3d a4f3 2b3d c04e 383b f418 89bd
00000190: d4c3 9ebd 4870 863c 10ae 7dbd 70a2 57bd
000001a0: b818 1f3d 8c9d ab3d 00cf e9bd f65a a9bd
000001b0: a0c8 a93b b032 f83d 3c51 cb3d 60ed eebc
000001c0: e060 f2bb 9a2c c53d 746f ee3d 9850 e83d
000001d0: dac4 eebd e0af 883c 1877 bcbc a420 c13d
000001e0: d02e 0b3c c497 623d f461 193d e6f1 fe3d
000001f0: a83b e7bc 5cee 433d 18f7 fabd bc3e 393d
00000200: f06d 2a3c 0cc8 5cbd 0042 19bc b440 a03d
00000210: 6a44 de3d 78a3 a73d 0009 99bc 8c89 47bd
00000220: 2c0c cd3d d080 3c3c 965f b43d 0092 82bc
00000230: ac2f 44bd 10d2 c0bd 78ff e2bd b082 4f3c
00000240: 40aa 18bc 7836 82bc 86ed a33d bc6d 493d
00000250: 94e9 79bd 2c5f 603d 98f2 e7bd c805 e03d
00000260: 5e98 9a3d ecce 363d 40b3 e43d d02e e73d
00000270: 106f 2cbc 0088 5e39 8025 1d3d 4ce0 5a3d
00000280: de94 d5bd a09f 943c 0add e83d a04a 5f3c
00000290: e49a 65bd cc70 16bd 4048 c1bd 7ac1 ae3d
000002a0: e0c4 8c3b c074 4cbc 748b d8bd 8ce8 3a3d
000002b0: e019 dbbb fc03 8f3d 9cdf 293d e0d8 d0bd
000002c0: e8d4 3c3d 40b8 553d d612 f93d e05a debc
000002d0: 8042 adba 2008 57bd 18df 4ebd 8834 1cbd
000002e0: 288c 473d c22b dbbd 726c c23d a6b6 aebd
000002f0: 3818 11bd 9029 653d 7ed8 c83d b487 013d
00000300: f8f8 483d 54ed 223d 882b 18bd 7875 bc3c
00000310: 58e1 31bd b0cc 45bc e814 b3bd 8818 fdbc
00000320: 10bc 8dbd 8e52 dabd bc40 a63d 70ab 68bc
00000330: 0048 a9bb 80e3 133c f0ba d63d 7411 40bd
00000340: d0f3 bd3d 30e4 d1bd 062a 94bd fecb eebd
00000350: 40c6 44bc ca68 843d 6e29 b73d 84d2 44bd
00000360: 3024 e2bd 70bf e73d c85a 903c 80c0 ccbc
00000370: 803a c43c 08a4 4c3d e8c0 bdbc d0c6 0f3d
00000380: 3c7a 09bd f425 afbd c07b f93d ce87 b03d
00000390: 881b f53d e0e8 f0bc 447d f23d 205e febd
000003a0: 789d 70bd 6e8d 85bd a81c 583d d4cc 773d
000003b0: d8e7 203d 74d6 763d c2e5 8a3d be37 923d
000003c0: ee3f a23d 182b fbbd dcdc 293d b404 733d
000003d0: d215 82bd 2c59 c43d 0883 b13c 88ac c33c
000003e0: ca89 d03d 44a6 01bd e811 ba3c 78a0 723d
000003f0: 4c02 b5bd 169f fe3d 0c76 c93d 0ade d53d
0.050987482 -0.038158447 -0.029166996 -0.014195338 -0.030789435 -0.10150875 -0.10086474 -0.033017397
-0.06565133 0.02218397 -0.056291625 0.08093025 -0.09727153 0.020756349 -0.11869335 -0.053932786
-0.119393796 -0.0411447 0.11812864 -0.105179936 -0.0945598 0.018239051 0.11014634 -0.08041087
0.041162312 0.031719297 -0.1174646 0.10829969 0.079488784 0.032315284 -0.09262322 0.0020139515
0.07691696 0.098718256 -0.11685589 -0.069693714 0.12499829 -0.06374684 -0.11835717 -0.042374834
-0.07563773 0.113331884 -0.11656362 0.045188487 -0.083678365 0.04316376 -0.036956325 0.083427966
-0.029947996 0.019030139 -0.085540965 -0.07731269 -0.123748556 -0.060964197 -0.07957117 0.08711596
-0.09839259 0.09761259 -0.052333117 -0.102162346 -0.005591899 0.04283032 0.0056206286 -0.07147713
0.10877092 -0.011770174 0.05928108 0.06733878 0.064526364 -0.048104584 -0.028340176 -0.008836612
-0.073968485 -0.096704066 0.07620925 -0.08370194 -0.060013667 -0.06883867 0.030760348 -0.010791615
-0.045982704 -0.0006443411 -0.073764235 -0.015262619 -0.09476842 0.036728054 -0.006915182 0.040576085
-0.06309831 -0.039219826 0.047495157 -0.056873277 -0.07464813 -0.06812984 0.094765306 -0.06683597
0.12286559 0.0419804 0.002812311 -0.066942126 -0.07752195 0.016410962 -0.061933577 -0.052645147
0.038841933 0.08379659 -0.11416435 -0.082693025 0.005181387 0.12119043 0.099276036 -0.029165924
-0.0073968023 0.09627648 0.11642352 0.11343497 -0.1165864 0.016685426 -0.023006007 0.09430054
0.008495048 0.055320516 0.03744693 0.12448482 -0.028226689 0.04783474 -0.12254161 0.045225844
0.010402188 -0.053901717 -0.0093541145 0.07824841 0.10852893 0.08185476 -0.01868105 -0.04871516
0.10012087 0.011505321 0.08807294 -0.015938759 -0.047897026 -0.09415066 -0.11083883 0.012665436
-0.0093179345 -0.015895113 0.080042884 0.049176916 -0.061013773 0.054778263 -0.11325568 0.10938603
0.07548593 0.04463093 0.11167002 0.11288226 -0.010524526 0.00021222234 0.03836584 0.053436562
-0.10428785 0.018142521 0.11370285 0.013628632 -0.05605592 -0.036728665 -0.09437609 0.085329965
0.0042959303 -0.012479007 -0.105734736 0.04563193 -0.006686434 0.06983182 0.041473016 -0.101976156
0.04610148 0.052177668 0.12161796 -0.027142942 -0.0013218671 -0.052497983 -0.050505728 -0.038136035
0.048717648 -0.107017055 0.094933406 -0.08530931 -0.035423487 0.05594784 0.098069176 0.031623557
0.04906556 0.039777115 -0.03715089 0.023005232 -0.043427795 -0.012072727 -0.08744222 -0.030895486
-0.06920636 -0.10660277 0.08117816 -0.01420103 -0.005166054 0.009026408 0.10484874 -0.046891645
0.09275019 -0.102486014 -0.07234578 -0.11660002 -0.012010157 0.064652994 0.08943449 -0.048052326
-0.110420585 0.11315811 0.017621413 -0.024994135 0.023953676 0.04996112 -0.023163274 0.03510171
-0.033563837 -0.08552161 0.121818066 0.08619653 0.11968142 -0.029407918 0.11840299 -0.12420297
-0.058743924 -0.06521116 0.052761704 0.060498074 0.039283603 0.060263112 0.06782104 0.07139538
0.0792235 -0.12264079 0.041470394 0.059330657 -0.06351818 0.09587321 0.021668926 0.02388598
0.10182531 -0.031652704 0.022713616 0.059235066 -0.08838329 0.12432687 0.09836969 0.10442741

gru.weight_hh_l0 f4 [192, 64]
00000000: d6af c83d 48dc 903d ea0c d23d cc00 74bd
00000010: 6a5d 823d 20e9 3fbd a0d6 ddbb 3093 7c3c
00000020: f214 dc3d 10b5 b7bc 0aa7 b93d 8448 bd3d
00000030: 204e d8bc 80a1 e13d f0bd babc d4df 16bd
00000040: a2c1 91bd e2cf acbd 7aaf cfbd 7091 e73d
00000050: 5415 afbd 0079 ffbd 7c49 0d3d 8ca1 5abd
00000060: c027 413c f0a7 74bc a8d4 943d 0872 5e3d
00000070: d06c 4cbd c02f bbbb 7618 b0bd 681f a4bd
00000080: a004 a8bb 2099 1bbc a089 1a3d 2eae eebd
00000090: 46e7 f43d f83f e63d f037 2abd 3867 363d
000000a0: 505b d5bd e862 fb3d 0856 55bd 081d bb3c
000000b0: 80fe e53a b41c 68bd 70fc febd 38ff c53c
000000c0: 4c5a 40bd d2b6 dc3d f0ff 83bd ec8b a2bd
000000d0: 7256 92bd 549b 193d 227c fabd a8fd 9cbd
000000e0: bc75 52bd ac28 f23d 84e9 7dbd d2f2 e43d
000000f0: aa50 edbd fc7f af3d 7e57 8dbd deaf be3d
00000100: a024 cdbb dcc6 0b3d a8be e6bd 0809 093d
00000110: 1475 f3bd 646b 7e3d 682b 933c a0ea 8c3d
00000120: 5c73 243d 9690 e03d 66a9 b0bd 642c 703d
00000130: 7cb7 56bd a482 843d ba6a 95bd 00fe 15bb
00000140: fe05 d0bd d830 ab3c c231 d6bd d84c 25bd
00000150: a44c 403d 186c 243d e8ae 93bd b0c6 b53c
00000160: 444f 84bd 2693 86bd f0ea 40bd 501e 83bc
00000170: 2a7d c5bd 5432 06bd 48cf e0bd dc7f a83d
00000180: 7448 abbd 6c3f a03d a093 87bb 9ea0 e93d
00000190: 54a6 4a3d 1426 35bd 8a59 b7bd 68fd f63d
000001a0: 08f1 cf3d 1a79 fcbd c867 703d b4e5 833d
000001b0: 3ca3 4fbd d020 9e3c 00e4 e93a 5c0d 29bd
000001c0: 44b6 6b3d ecb2 e83d 287a 40bd 806f e83a
000001d0: 28da c63c 7452 663d 303f 24bc 4071 55bb
000001e0: 40ce 69bc a096 943b 846e bb3d 0054 19b9
000001f0: 20a8 66bc 4044 46bc 601f c7bc 1237 973d
00000200: f8cd 203d 58c7 023d 0455 4bbd b03d e43d
00000210: ac69 ce3d 40b5 4dbb 803b 57bc 1428 9dbd
00000220: 1c9e 703d c820 2ebd 2c23 363d fa00 b73d
00000230: e271 be3d a0b1 a8bd 4eb5 e5bd 4094 963d
00000240: 38a4 cebc b02f f8bc 008a b7bd fc5b 03bd
00000250: aea8 febd 5ca7 b53d 4e69 db3d 943e 0a3d
00000260: c6d8 8f3d a630 a2bd 02e2 e9bd 4027 5d3c
00000270: 3a1a e33d 1490 543d d4ca 3abd 9cba 993d
00000280: c630 efbd 9cc8 1e3d 4046 f3bc e037 6fbc
00000290: a0f3 8fbc f82b 4d3d e400 a13d 84c8 5bbd
000002a0: e21c a2bd a4e8 e2bd f090 a93c 8c84 933d
000002b0: 3614 8ebd 8019 d03b 4c32 7a3d 3c53 f3bd
000002c0: 9021 3e3c 94be 35bd cc63 e7bd d8b7 d4bd
000002d0: dced 99bd 5097 21bd 1025 26bd a89d ef3c
000002e0: 0002 18bb 6ec3 c3bd 48dd b4bc c004 a93c
000002f0: 943d f6bd 42fe d6bd 5cbc 2bbd e0d4 b8bd
00000300: 3ea9 843d 5439 33bd 6af2 d73d ac2b 5c3d
00000310: f4da 543d 3c3a e5bd d6c9 c3bd d66a a13d
00000320: d47a 663d 30b1 e73d f688 81bd 0c38 ec3d
00000330: e47c 643d 08d8 9bbc 9276 b33d 5e70 acbd
00000340: ec54 9c3d 189b a0bc e093 333c b4cd c6bd
00000350: 82de f63d 945f 2e3d aecf b3bd 5059 083c
00000360: 1cf2 7e3d 60e0 c53b f4f7 25bd bc42 9dbd
00000370: 1a0b 9a3d fad8 c83d cc78 a4bd e0d7 b33b
00000380: ec90 ed3d 4039 24bc 4c08 493d 3cad e0bd
00000390: 6c33 bdbd aa61 89bd 347f 6bbd 3c58 b83d
000003a0: f27a be3d 6886 8e3c 8090 873a 0837 cbbd
000003b0: 5066 19bc 309d 4abc 6c52 eb3d a4a2 423d
000003c0: c67f d5bd 2ef3 c7bd 3c00 263d 905c 4f3c
000003d0: 48dd 8a3d 4a94 df3d fadf f0bd ea38 f73d
000003e0: 10d3 49bd 0636 e3bd ec0b 73bd 1488 87bd
000003f0: 5a1e ab3d 6c2a 0abd 46b1 d6bd 503f e0bc
0.09799163 0.07073265 0.102563694 -0.059571072 0.063654736 -0.046853185 -0.00676997 0.015415952
0.107461825 -0.022425205 0.09065063 0.09242347 -0.02640444 0.11017132 -0.022795647 -0.036834553
-0.07117011 -0.08438088 -0.101408914 0.11307037 -0.0854899 -0.12474251 0.03449391 -0.05337672
0.011789262 -0.014932618 0.072671235 0.054307967 -0.04990846 -0.0057124794 -0.085984156 -0.08013803
-0.0051275045 -0.009496957 0.037728906 -0.11654316 0.119581744 0.1124267 -0.041557252 0.04453203
-0.10417807 0.12274724 -0.052084 0.022840992 0.001754716 -0.056668 -0.124504924 0.02416955
-0.046961114 0.10777058 -0.064453006 -0.07936844 -0.071453944 0.037501648 -0.12230708 -0.076655686
-0.05138181 0.11824164 -0.061990276 0.11179127 -0.11587651 0.08569333 -0.069014534 0.09310888
-0.0062604696 0.034125194 -0.112668335 0.03345588 -0.11887565 0.062114134 0.017965034 0.06880689
0.040149078 0.109650776 -0.0862606 0.058636084 -0.052421078 0.0647023 -0.07295747 -0.0022886992
-0.10157393 0.020897314 -0.10458709 -0.040356487 0.04694809 0.04014215 -0.07211095 0.022189468
-0.06460431 -0.06571035 -0.047099054 -0.016005665 -0.09643014 -0.03276284 -0.10977036 0.08227512
-0.08363429 0.07824597 -0.0041374713 0.114075884 0.04947503 -0.044225767 -0.08952625 0.12060052
0.10153395 -0.12327786 0.058692724 0.06440297 -0.05069278 0.019302756 0.0017844439 -0.041272506
0.05754687 0.11362252 -0.046991497 0.0017733425 0.024273947 0.056230977 -0.010024831 -0.0032568723
-0.014270365 0.0045345575 0.091519386 -0.0001462251 -0.01407817 -0.012101233 -0.024306953 0.07383551
0.039258927 0.03192839 -0.049641624 0.111445785 0.10078749 -0.003138855 -0.0131367445 -0.0767366
0.058744535 -0.04251173 0.044467136 0.08935733 0.09299065 -0.08237004 -0.11216222 0.07352495
-0.02522479 -0.030296177 -0.08961868 -0.032070145 -0.12434517 0.08869812 0.10713445 0.033751085
0.07023768 -0.07919435 -0.11420061 0.013498127 0.11088987 0.051895216 -0.04560359 0.07506296
-0.11679225 0.038765535 -0.029696584 -0.014600724 -0.017572224 0.05009076 0.07861498 -0.053658023
-0.07915665 -0.11079529 0.020698994 0.07203016 -0.06937449 0.006350696 0.061083123 -0.1188111
0.011604682 -0.044371203 -0.112983316 -0.10386628 -0.07516071 -0.039450943 -0.04056269 0.029249981
-0.0023194551 -0.0955876 -0.022078171 0.020632148 -0.12023464 -0.104977146 -0.04192768 -0.09024978
0.06477593 -0.043755844 0.10544284 0.053752586 0.051966622 -0.11192748 -0.095599815 0.078817055
0.05626948 0.11313093 -0.06324951 0.115341276 0.055783167 -0.01902391 0.0876285 -0.0841987
0.07633385 -0.019605204 0.010960549 -0.097072035 0.12054159 0.04257162 -0.08779846 0.008322075
0.062242612 0.0060387105 -0.04051967 -0.07678744 0.07521649 0.0980701 -0.08030853 0.005488381
0.11599907 -0.010023415 0.04908018 -0.10970542 -0.092383236 -0.06708081 -0.057494357 0.09001204
0.09300794 0.017398074 0.0010342747 -0.09922606 -0.009362772 -0.012366578 0.1149033 0.047518387
-0.104247615 -0.0976318 0.040527567 0.012656346 0.06780487 0.10916956 -0.1176147 0.12071402
-0.04927355 -0.110942885 -0.05933754 -0.06617752 0.083553985 -0.033731863 -0.10483031 -0.02737394

gru.bias_ih_l0 f4 [192]
00000000: 2092 8d3c 1648 e93d 38db abbc 0c62 c8bd
00000010: 3cb3 75bd e643 b93d 3cee 003d 546d e53d
00000020: 36a6 e03d 12b1 cc3d a09a 8c3b dceb 17bd
00000030: d0b2 d63c c4ff ed3d d48a b73d acb3 1ebd
00000040: 96e1 cabd 22bc 8dbd ea60 9bbd a882 c7bd
00000050: 8293 aebd e8ca e9bc 42c1 c7bd a090 9c3b
00000060: 8665 efbd 0c07 50bd 6eff b0bd 683f 933d
00000070: 6ca7 6a3d 908c f03c 16f4 86bd 6037 df3d
00000080: 80c0 003d 1274 fd3d 8033 d9bd cef9 89bd
00000090: 00d6 c739 d2f6 e63d b0a8 6b3c b0ae 3b3c
000000a0: e093 b73d 989f 023d d443 04bd aebe f8bd
000000b0: 962a f53d c063 5abb 485d 5e3d 68b5 b13c
000000c0: 5442 51bd d6af c7bd 9c14 7ebd e624 b53d
000000d0: b0c2 36bc 08ff 7a3d 70e5 8cbd 74ff 483d
000000e0: ec09 cabd 1e5c 80bd d680 bd3d 16d5 e0bd
000000f0: 08f5 203d 6a2e d8bd 4432 103d 2610 b23d
00000100: 4cdb 14bc 26bb ab3d f045 433c acc2 303d
00000110: b4af 8ebd 0a29 b1bd 6802 853d f857 fdbc
00000120: 6d91 fdbd 412e 33bb ea56 dabd d68b b7bd
00000130: a803 fabc 44d7 4ebd 98d4 e0bc a8d4 1dbd
00000140: 1e3a 9abd 5ccd 48bd b074 eabd f9e1 ba3d
00000150: bcb2 20bd a830 5ebd e8f4 8ebc 0c8a ae3d
00000160: 9abe c03d aa20 a9bd 7687 f63d e602 a9bd
00000170: e805 0d3d a868 bfbd 9216 fabd 36ca d83d
00000180: f478 f33d 1e84 d53d 2085 46bc 865f f1bd
00000190: cdc1 aa3d d243 e53d c883 f3bd ba20 f5bd
000001a0: c4c5 07bd 3c58 fc3d 385f 97bd d5e0 9cbd
000001b0: 00d4 3e3d 0886 a4bc 5e47 fd3d f241 f2bd
000001c0: 000e de39 289a dabc 00e2 f7bc bdb1 503c
000001d0: 1028 0f3d 0447 2a3d 9ef2 e7bd 9095 2b3d
000001e0: db8b b13d dc30 1b3d 7246 853d 2e66 d3bd
000001f0: e6eb 8d3d c84c 3d3d 4a81 fb3d 604f bd3c
00000200: c0dc d83c befa 803d de88 483d f4fa b43d
00000210: 628b 983d 300b a33c ecb0 803d 604d 193c
00000220: fa4b bb3d b044 4cbd 3308 d9bc 5ad3 f2bd
00000230: d2aa f53d 9049 d23c 00ed cc3c cc06 213d
00000240: 1e88 ce3d 20f3 f2bc 3ce9 47bd 9cd4 debd
00000250: fed6 ad3d 003e 373a c04b 3fbb 8090 0a3d
00000260: 401f f83d 32aa 19bc d09d b4bc 101f 68bc
00000270: 007a d6b9 af09 69bd 446e d63d c031 0c3c
00000280: d614 14bd f4d8 c63d d0e7 643d 00f5 6a3d
00000290: 3adc 883d 44e2 6c3d 9c87 c4bd d8e5 0b3d
000002a0: 1fc9 35bd 9840 bfbc 3c24 dabd c438 88bd
000002b0: b243 863d f048 00bc 2b1c 7fbc 2093 96bb
000002c0: 9c63 983d 98d4 6e3d fcc1 7fbd 6a55 f7bd
000002d0: b2fa 9fbd c03b fdbb 6fb7 153d 2052 d83b
000002e0: f6ff 84bd 8c55 a93d 4057 c03d 445f bdbd
000002f0: 605d 01bc 7b5a b23d 2533 5a3d 704d f73c
0.017281592 0.113907024 -0.020978555 -0.09784326 -0.059985384 0.09046154 0.031477198 0.11202493
0.10969202 0.09994711 0.0042908937 -0.037090167 0.026208311 0.11621049 0.08962026 -0.038745567
-0.09906308 -0.06920649 -0.07586844 -0.097417176 -0.08524229 -0.028539136 -0.09753658 0.004777983
-0.11689286 -0.05078797 -0.08642469 0.07189828 0.057288572 0.0293639 -0.065895244 0.10899234
0.031433582 0.12375654 -0.10605526 -0.067370996 0.0003811568 0.11277546 0.01438348 0.011455223
0.08963752 0.03189048 -0.03229125 -0.12145744 0.11971013 -0.0033323616 0.05428818 0.021692947
-0.051088646 -0.09750335 -0.062031373 0.088449284 -0.011154816 0.061278373 -0.06879699 0.049071744
-0.09865174 -0.0626757 0.09253089 -0.10978143 0.03929618 -0.10555728 0.035204187 0.08694486
-0.009085488 0.08385305 0.01191853 0.043154404 -0.069671065 -0.08650406 0.064945996 -0.030925736
-0.123812534 -0.0027340802 -0.10661109 -0.089622185 -0.030519322 -0.050498262 -0.027445123 -0.038532883
-0.07530616 -0.04902397 -0.114480376 0.09125132 -0.039232954 -0.05424562 -0.017450765 0.08522424
0.09411354 -0.08258183 0.12037556 -0.08252506 0.03442946 -0.093461335 -0.12211336 0.10585444
0.11888304 0.1042559 -0.0121167 -0.11785798 0.08337746 0.11194576 -0.1189037 -0.11969133
-0.03314759 0.12321517 -0.073912084 -0.07660071 0.046588898 -0.020083442 0.12367128 -0.11828984
0.0004235357 -0.026684836 -0.030259132 0.012737689 0.034950316 0.041571632 -0.113255724 0.04189068
0.086692534 0.037888393 0.06507577 -0.103222236 0.0692976 0.046215802 0.12280519 0.023109138
0.02647245 0.06297825 0.04895865 0.08836928 0.0744846 0.019902796 0.06283745 0.009356827
0.09145351 -0.049870193 -0.026493168 -0.11856718 0.11995472 0.025669843 0.025015354 0.039313123
0.10084556 -0.029656947 -0.048806414 -0.10880396 0.08488272 0.0006990135 -0.0029189438 0.033829212
0.121153355 -0.009378957 -0.022047907 -0.014167562 -0.00040908158 -0.056894 0.1047025 0.008556783
-0.036152683 0.09709349 0.055885136 0.057362556 0.0668263 0.05783297 -0.09596178 0.034154743
-0.044381257 -0.02334623 -0.106514424 -0.06651452 0.065558806 -0.00782989 -0.015570681 -0.0045951754
0.07440874 0.058308214 -0.062440857 -0.12076838 -0.07811488 -0.00772807 0.03655189 0.006601587
-0.06494133 0.0826827 0.093916416 -0.09246686 -0.0078957975 0.08708664 0.05327143 0.030188292

gru.bias_hh_l0 f4 [192]
00000000: 5458 053d 9893 e7bc 0cb4 edbd 1453 bb3d
00000010: c246 8ebd 8840 ef3d 60a0 5bbc 7850 be3d
00000020: 2e80 e8bd 00d8 77b9 5001 72bc 00ac 3c39
00000030: 4cb0 28bd b441 6dbd 4a3f ba3d 7071 dfbd
00000040: fcf9 6ebd 40b1 d6bb 6a7a a8bd 6ab0 8a3d
00000050: 8661 953d c064 683b 3e44 f33d 3492 ee3d
00000060: 9c3f b33d 4e75 d93d e498 41bd b4a9 ebbd
00000070: 4abc b7bd 9ee5 bebd 00e4 78bd 9055 693d
00000080: 7062 443d 6015 f5bd fe97 debd f09b afbd
00000090: d0ea db3c fcbe 5ebd 0651 c33d 58b8 fabc
000000a0: 9c35 2a3d 68ad e3bc 0009 103b 00d7 b43a
000000b0: 8029 063b fa1e cebd 7cad 513d c884 01bd
000000c0: 4ab2 8bbd 9065 37bd bc1d ed3d cc03 b4bd
000000d0: 1c2a 15bd dc69 5dbd 4cc7 7fbd 9aa8 df3d
000000e0: 90ce 19bc 4c13 99bd 7855 9abc 0879 cdbd
000000f0: bc8c b73d 6652 dbbd 8007 91bb f4d9 393d
00000100: 6fdf 9bbd a089 42bc a038 c9bb 3cbc 61bd
00000110: 4082 213b a6a3 a3bd a81c 8d3d f8e6 ddbc
00000120: 6166 d6bb 51c4 1d3d 08a2 bc3d a26e 8fbd
00000130: 4a17 b4bd 9074 e93c 1cd8 a6bd 0c94 d2bd
00000140: b0a2 c33c 26a3 853d 4835 e8bd 4d1e 84bd
00000150: be7e debd 82aa c13d dc3f aebd 3454 863d
00000160: a4eb bcbd 9ccf f43d 6a42 eebd ac8b d8bd
00000170: 645c 123d 7bb0 46bd b078 ea3d 446b 503d
00000180: d0ea c73d 3444 40bd 88b7 1dbd 6043 61bd
00000190: b1b0 8bbd 2a8b e23d 2844 d4bd c02c 073d
000001a0: 0c80 713d 5a59 cf3d d484 d63d 710a 11bc
000001b0: 246e 913d 6029 b7bb f15c fbbc be99 eb3d
000001c0: c633 ddbd 5c61 0ebd 4eeb cdbd 2ae0 d43d
000001d0: 0445 57bd 3024 3bbd fed0 96bd 700a 2c3d
000001e0: 3db2 a43a b564 7fbd 1cd2 0bbd d670 a7bd
000001f0: a411 25bd 8e33 e23d 2849 9dbd f0f8 033c
00000200: b022 793c 0269 b93d 1b32 683d a8f4 51bd
00000210: 7081 1c3c 32d8 9fbd ceda cdbd 489d 4b3d
00000220: c093 cc3d e092 893b cb82 cf3d 70d4 32bc
00000230: 80bf d03d 18d8 903c a074 57bc c039 d33c
00000240: 90bf c1bc 704d c6bc 2c0c 19bd 207a e5bb
00000250: 1c75 fd3d 5078 1e3c 70f5 d03d 26d1 b2bd
00000260: aefd d23d 1c01 33bd e02c a3bb e8e5 583d
00000270: 664b 843d fbd1 52bd 4464 eb3d ca5d cabd
00000280: f063 843c 1828 3e3d fc25 fdbd 5029 113c
00000290: b288 ac3d a088 b13d 2865 adbd a65b acbd
000002a0: 9b03 963d 806b e0bd 5049 cd3d b01e bebd
000002b0: aa17 fcbd 50a5 493d 35be 8dbd 804f 65bc
000002c0: 30a9 5f3d 581b ee3d f029 3bbd d060 7abc
000002d0: a0cd ed3d f2fe dcbd f8b7 a0bd 3453 67bd
000002e0: f89a 50bd 02ad b43d 8c1b 81bd 8e6b 87bd
000002f0: c0fb 2b3b a809 ea3d ecf2 263d 9267 e9bd
0.03255494 -0.02826862 -0.11606607 0.09146705 -0.0694709 0.1168223 -0.013404936 0.09292692
-0.11352573 -0.00023636222 -0.014770821 0.00017993152 -0.041183755 -0.057923988 0.09094103 -0.10910308
-0.058343872 -0.0065518916 -0.08226474 0.067719296 0.07293992 0.0035460442 0.118782505 0.1164898
0.08752367 0.10618077 -0.04726495 -0.11506978 -0.0897146 -0.0932114 -0.060764313 0.056966364
0.04794544 -0.119669676 -0.10868834 -0.085746646 0.026845366 -0.054381356 0.09536938 -0.03060548
0.041555032 -0.027792647 0.002197802 0.0013796985 0.0020471513 -0.10064502 0.05119084 -0.03162077
-0.06821115 -0.044774592 0.11577937 -0.08789787 -0.03641711 -0.054056033 -0.062445924 0.1092083
-0.009387627 -0.07474384 -0.018839583 -0.100328505 0.0896239 -0.10709076 -0.004425943 0.045373872
-0.07610976 -0.011873633 -0.0061407834 -0.055111155 0.0024644285 -0.07990198 0.06890231 -0.027087674
-0.0065429662 0.0385173 0.092105925 -0.070035234 -0.087935045 0.028497964 -0.08146688 -0.10282144
0.023881286 0.06525259 -0.113382876 -0.06451092 -0.10864018 0.0945635 -0.08508274 0.06559029
-0.092246324 0.11953661 -0.11633761 -0.10573515 0.03573264 -0.04850815 0.114488006 0.050883546
0.09761584 -0.046940044 -0.038505107 -0.054995894 -0.068208106 0.110617 -0.10364562 0.03300166
0.058960006 0.10124464 0.10474554 -0.008852587 0.07101086 -0.005589649 -0.030683966 0.11503933
-0.108008906 -0.034760818 -0.100546464 0.103943184 -0.052556053 -0.045688808 -0.07364081 0.04200214
0.0012565326 -0.0623519 -0.034135923 -0.081758186 -0.040300027 0.110449895 -0.07679969 0.008054957
0.015206024 0.09053232 0.05668841 -0.051258713 0.009552345 -0.07804908 -0.10051499 0.049710542
0.099891186 0.004198417 0.10132369 -0.010914907 0.10192776 0.017681167 -0.013150364 0.025784373
-0.023650914 -0.024206847 -0.037365124 -0.007003084 0.123758525 0.009672239 0.102030635 -0.08731298
0.10302292 -0.04370223 -0.0049797148 0.05295363 0.064596936 -0.051469784 0.114937335 -0.0988117
0.016160935 0.046424955 -0.123607606 0.008859947 0.0842451 0.08668637 -0.0846656 -0.08415918
0.073249064 -0.10958004 0.10023749 -0.09283197 -0.12309201 0.04922992 -0.06921045 -0.013996005
0.05460471 0.11626309 -0.04569429 -0.015281871 0.116114855 -0.107908145 -0.07847589 -0.056475833
-0.05092904 0.08822061 -0.06304082 -0.06612311 0.0026242584 0.11427623 0.040759012 -0.113967076

post.0.weight f4 [64]
00000000: 583d 1b40 5d2a 1840 36e6 1341 830f ad3e
00000010: 1832 483a e579 1c40 a695 d13e 7b7b 3f40
00000020: 5f76 b53e cc27 1241 b4c3 4340 6ec8 5c40
00000030: 1386 e53f 43d6 d33e fb7c 6740 2d70 ae3e
00000040: 2d7f 1240 ce84 4d40 0ed7 8f3f 51ff 8c40
00000050: ff4f 883f 5397 b43e fe28 d83e 14dc b33e
00000060: 02b0 b53e abf4 a340 37a5 3340 664d 3d40
00000070: 6db6 8041 a743 4e3f 02a8 c840 8f78 d23f
00000080: 262b b73e 4665 a240 fbb8 4a3f c3dc b13e
00000090: 4a5e 7840 838f 7a40 9bb7 ab3e 1e32 3140
000000a0: 43c5 d13e 9bf9 c63e d8f0 e43e 9cc6 d03e
000000b0: beb8 403f 2a39 353f 1404 563f fc3b 0c3f
000000c0: 9a0e c03e 3c88 1040 b3eb 2c40 6647 1e40
000000d0: 3693 1fba bd0a e53f 8c46 9e3f 2aae 1340
000000e0: cab7 dc3e 60a1 cf3f d6d7 3840 06db b03e
000000f0: a1b6 4e40 7731 6941 e82c d33e 240b 6d40
2.4256191 2.3775856 9.243704 0.33800897 0.0007636859 2.4449399 0.40934485 2.9919116
0.35441872 9.134716 3.0588198 3.4497333 1.7931541 0.41374406 3.6170032 0.34069958
2.2890122 3.2112308 1.1237504 4.4061666 1.0649413 0.352717 0.42218775 0.35128844
0.35485846 5.1236167 2.806959 2.957849 16.089075 0.8057198 6.270509 1.6443042
0.35775107 5.0748625 0.7918851 0.3473874 3.880755 3.9150093 0.33538517 2.768684
0.4097081 0.3886231 0.44715 0.40776527 0.75281894 0.7079035 0.8359997 0.5477903
0.3751114 2.258315 2.701886 2.4731078 -0.0006087305 1.7893902 1.2365279 2.3075051
0.4310897 1.6221123 2.8881736 0.34542102 3.2298968 14.574576 0.41245198 3.703805

post.0.bias f4 [64]
00000000: bdb4 94be 3b71 93be addf df40 f14e 2fbf
00000010: 711b 6cbb 1633 b5be c236 16bf ab6c dcbe
00000020: a2e4 26bf 366b 513f ca79 ea3f ae3a aebe
00000030: f953 dcbe de91 58bf 38a4 08bf fb32 2ebf
00000040: 77b5 a3be 175f ecbe 9087 cfbf d06c 24bf
00000050: bc64 a5bf 2980 37bf 1c89 54bf 846c 2abf
00000060: 0e19 24bf cab0 da3e 855e 3f3d 04cb e0be
00000070: c1f9 6141 3862 47be 29b2 963e c700 d5be
00000080: 6e2e 27bf dcbc e63e e87e 6bbe 922b 2fbf
00000090: 2c67 11bf 3faa 13bf 64ac 2abf 2453 d3be
000000a0: a2d4 16bf 58d1 20bf 4e96 49bf 47fe 17bf
000000b0: 2d80 56be a617 53be 7f25 9dbf d3c6 84bf
000000c0: 0839 29bf bdc4 adbe 43e0 c9be d84d bcbe
000000d0: b9d7 90bc 19fb debe 4b53 e6bf f2d4 17bf
000000e0: ec47 59bf f81d e8be 4ac2 063d c77e 26bf
000000f0: ae77 efbe 93f3 ab3f 4cb1 17bf a342 08bf
-0.29044142 -0.28797325 6.996054 -0.6847983 -0.0036027099 -0.35390538 -0.58677304 -0.43051657
-0.65192616 0.81804216 1.8318417 -0.34029144 -0.43032816 -0.84597576 -0.5337558 -0.6804654
-0.31974384 -0.46166298 -1.6213245 -0.64228535 -1.2921367 -0.7167993 -0.8302171 -0.6657183
-0.6410073 0.42713004 0.046721 -0.4390489 14.123475 -0.19471061 0.294328 -0.41602156
-0.6530522 0.45065963 -0.2299763 -0.6842586 -0.5679805 -0.5768165 -0.666693 -0.4127437
-0.589182 -0.62819433 -0.7874497 -0.5937237 -0.20947333 -0.2061449 -1.2277068 -1.0373176
-0.6610265 -0.33939162 -0.3942891 -0.3677814 -0.01768099 -0.43550947 -1.7994169 -0.59309304
-0.8487537 -0.45335364 0.032900132 -0.65037197 -0.46770996 1.3433708 -0.5925491 -0.5322668

post.2.weight f4 [64, 64]
00000000: afb2 c6be 8ff5 1b3f 96d4 eabe 2661 4e3e
00000010: ad8d 1ebe 8e0f 263f 4d97 683d b659 bcbd
00000020: a75e af3d 7886 df3f e612 0d3e 591e 42be
00000030: 3ed5 763e 61d1 0dbf bd9e 423f 9d49 e9bd
00000040: 372b 54be 5e73 44be bfbf adc1 6933 5ac0
00000050: 3c5d a23c d133 f63d ff3e 363c ddfb 053e
00000060: 7618 bfbc 6e3c 82c0 d401 e73e f444 ddbe
00000070: 611c 8f3e 8077 473d 8a0b 8d3f 49d5 12bf
00000080: ccf1 a43c f933 ba3e 1d21 b7be d53e b93d
00000090: b004 49c0 e316 2d3e 9b6c 98bd 2628 3b3f
000000a0: 5a50 cdbd b3c6 2f3c f00c 19c0 01dd 523d
000000b0: 2d67 fabd 8055 82be 4e99 aabf cde8 c93d
000000c0: 509c ae3d 9a14 2a3f d622 783e 2b5f 82bd
000000d0: 475d 90be 53fe 3f3f 1538 acc1 9d90 12c0
000000e0: dcf0 59c0 1acc a5bf 39be 8a3e 61e2 c7bc
000000f0: 55a0 803e 8ee7 233f 279d 2a3d 974e 553d
00000100: e1b3 1e3e 50ea 4dbe 9c4e 6b3f 05d8 adbe
00000110: b609 a13b 3371 1cbf cbed 29bd 2856 1d3f
00000120: 7b39 d2bc 926e 9bbf 259e 273e 2ea7 bbbd
00000130: ec88 bbbe b2f3 9a3e 5d8f 993f 96ab 08be
00000140: c655 f63e eb7a 9d3f ff9f e541 c28e a340
00000150: 3e4a ea3c b613 e2be 8c19 833f 3408 8ebd
00000160: 7e79 393c c0fa 9440 f712 62be 75bc d33f
00000170: 5261 f23e 8a62 d4bc 53db 90bf 06ad 9a3f
00000180: a065 dabd 4ecc 86be e607 94be 7c73 98be
00000190: f8b3 9940 3cc2 2840 478a 29be 1c7d febe
000001a0: c41f ee3b d557 a2bd e358 da3f 66d0 5cbe
000001b0: f62d 893c 0428 9f3d c471 df3f 9542 3b3f
000001c0: 51e0 98be 6dd3 4dbf e1d0 88bf 0fc5 3cbf
000001d0: ca60 cabc 51bd 73bf 81c1 f941 ba38 3840
000001e0: 38f7 2640 5ac4 2d40 16a1 bdbe 73bd e1bd
000001f0: 9dfb b73d 4760 5c40 5bf5 183d 0c10 e83f
00000200: 5be9 13bf f49d 6abd aad5 22c0 c929 f9bd
00000210: a4d4 8e3d 12dc 92bf f8da 0d3e 46ae 28bf
00000220: e0c1 2d3f 9968 07bf 75e0 38bf 1bcf 4dbf
00000230: ad3f 15bf 94e6 40be 1e97 20c0 0332 7e3d
00000240: 8e6f 04c0 102e 68bf 9c2a 4ec2 6f4f 07c1
00000250: e44d aa3e b73f b7bd 3f62 0ec0 8e07 8bbc
00000260: aa07 b23d 192b d5c0 1642 053f 5cb7 4dc0
00000270: 1021 ccbf 4a22 2c3e a590 49bf 352a 7bbe
00000280: b750 cfba d9a7 8dbf c671 f43e 0bab b03d
00000290: 08d4 a2c0 f203 5dc0 09f3 9fbd fb2a 8cbf
000002a0: b5e7 6d3e 46d1 4f3f 0e9c d7bf 5ce5 ac3e
000002b0: 30a0 d33e bb44 043f f133 8fc0 27b4 72bf
000002c0: ecf5 c73d 5e2f 26bf 1ba2 22bf a088 52bf
000002d0: b8a3 783d 06b7 afbe f0d1 53c2 da57 66bf
000002e0: b63f 60c0 9f22 0ebf 33bf bd3e 1fc0 14bd
000002f0: 24c6 ddbf e47d 44c1 1b89 113e 27d3 8cc0
00000300: 9dc1 b6be 1c6b fc3e eb69 9bbf 4e3d 873d
00000310: f3d5 403c 3435 143f 4aeb 89be ed6c 00c0
00000320: c655 29bf 68a2 c13d 5778 dfbe b36c 5cbf
00000330: 3768 1a3e 06a3 39be f325 01c0 a6c1 733c
00000340: bb7b 97bf 1013 cfbf 3c68 19c2 c5f7 c5c0
00000350: 49b7 973e ecd6 a23e 43b5 8cbb dfc9 66bc
00000360: 6d88 7fbd 2374 52c0 dfb1 9f3e 0ec7 01c0
00000370: 8912 a8bf 0358 87be 8cab 073f 5bb9 d9bf
00000380: ada1 723e 303a 45bf 307c 9b3e b0b4 6dbc
00000390: bf5b bec0 b6f5 afc0 fd83 b53d 5b9f be3f
000003a0: 444f 63be 84a2 1abf b661 45be 4869 92be
000003b0: 7369 153d 2c83 e73c 97e7 54c0 9524 89bf
000003c0: 07fe 9b3e 2a72 a13f 2737 803f 07a1 893e
000003d0: 5d1a 95bd 4424 573f 1392 1dc2 0284 22c0
000003e0: 7d82 f6bf cabc 4ac0 cb12 093f 8f1e 083d
000003f0: 1797 89bf d98a fbc0 a269 24be df88 01c0
-0.388082 0.6092157 -0.45865315 0.20154247 -0.15483733 0.64867485 0.056784917 -0.091967985
0.085629754 1.7462912 0.1377674 -0.18956889 0.24104783 -0.5539761 0.76023465 -0.11390994
-0.2071961 -0.19184634 -21.718626 -3.4093878 0.019819848 0.12021602 0.011123418 0.1308436
-0.023327094 -4.0698767 0.45118582 -0.4321667 0.2795134 0.04869795 1.1019146 -0.573567
0.020134829 0.36367777 -0.3576745 0.090451874 -3.140911 0.16903262 -0.0744259 0.73108137
-0.100250915 0.010728526 -2.3914146 0.051480297 -0.122267105 -0.25455856 -1.3328035 0.09858856
0.08525908 0.66437685 0.24232039 -0.06365808 -0.28196165 0.7499744 -21.527384 -2.2900765
-3.405326 -1.2952912 0.27098253 -0.024399938 0.25122324 0.640252 0.04165378 0.052076902
0.15498306 -0.20108914 0.91916823 -0.33953872 0.0049144877 -0.6111023 -0.041486543 0.6145959
-0.025662174 -1.2143118 0.16368921 -0.09162746 -0.366279 0.3026405 1.1996876 -0.13346705
0.48112315 1.2303137 28.703123 5.1111765 0.028599855 -0.44155663 1.0242171 -0.06935158
0.01132047 4.655609 -0.22077547 1.6541888 0.47339875 -0.025925893 -1.1316932 1.2084053
-0.10663915 -0.26327747 -0.28912276 -0.29775608 4.803219 2.6368551 -0.16556655 -0.49704826
0.0072669704 -0.07926909 1.7058376 -0.21563873 0.016745549 0.07771304 1.7456594 0.7314847
-0.2985864 -0.80400735 -1.0688745 -0.7373819 -0.024704356 -0.9521075 31.219484 2.8784623
2.608839 2.7151093 -0.3703696 -0.11022463 0.08983538 3.4433763 0.037343364 1.8129897
-0.5777795 -0.057279542 -2.544291 -0.12166173 0.06974152 -1.147341 0.13853061 -0.6589092
0.67873955 -0.5289398 -0.72217494 -0.8039414 -0.58300287 -0.18837959 -2.5092235 0.062059414
-2.0693088 -0.90695286 -51.54161 -8.456893 0.3326255 -0.089476995 -2.2247465 -0.016971376
0.08692868 -6.661511 0.52053964 -3.2143164 -1.594759 0.16809955 -0.78736335 -0.2452782
-0.0015816902 -1.1066848 0.47743052 0.08626374 -5.0883827 -3.4533658 -0.07810027 -1.0950617
0.2323292 0.811787 -1.6844499 0.33768737 0.4133315 0.51667374 -4.4750905 -0.9480614
0.09763703 -0.64916027 -0.63528603 -0.82239723 0.06070301 -0.34319323 -52.955017 -0.899778
-3.5038886 -0.5552158 0.37059936 -0.036316033 -1.7326093 -12.280735 0.14212458 -4.4007754
-0.3569459 0.49300468 -1.2141699 0.0660349 0.0117697595 0.5789368 -0.26937324 -2.0066483
-0.66146505 0.09454805 -0.436465 -0.8610336 0.15078817 -0.18128595 -2.0179412 0.014877712
-1.1834635 -1.6177692 -38.35179 -6.1864953 0.29632023 0.31804597 -0.004294069 -0.014086216
-0.062385965 -3.2883384 0.31190392 -2.0277743 -1.3130656 -0.26434335 0.52996135 -1.7009691
0.23694487 -0.7704191 0.30368185 -0.014508411 -5.9486995 -5.498744 0.088630654 1.4892381
-0.22198206 -0.6040423 -0.19275555 -0.28595948 0.036477517 0.02826079 -3.3266351 -1.0714289
0.30467245 1.2612965 1.0016831 0.26880667 -0.07280419 0.8403971 -39.39265 -2.539307
-1.9258572 -3.1677728 0.535443 0.033232268 -1.0749234 -7.860699 -0.1605592 -2.023979

post.2.bias f4 [64]
00000000: cf54 15bc 1b3f 763b a239 803f 59ea 82bf
00000010: d61b 813f b926 de39 b586 81bf f3eb 7f3f
00000020: f0d1 7bbf 7cd4 d73c d4fc 803f 3bb3 b4bc
00000030: 0de2 ed3b 3213 d83b c97a e5bb 82ad 7f3f
00000040: 62cd 6bbc c5b6 debc e8f9 78bf 4edd e13b
00000050: 6b23 5c3c ca05 7dbf 29fc 81bf fab7 08bb
00000060: 8a58 7dbf c296 e53c 1661 35bb f42e 53bb
00000070: 99b3 7a3f b012 803f 36ff c6bb d0cd 1d3a
00000080: 93ad 823f bd25 80bc af68 30bb 8015 81bf
00000090: 47d6 4c3c 79a9 eb3b ff98 273c 4289 7d3f
000000a0: 41ee 7cbf 4917 80bf 6833 7abf 7f82 7bbf
000000b0: fca0 eb3a e574 763c 34a1 80bf 04a8 523b
000000c0: e15b 813f 1475 5d3c 80ac 58bc d63c bfbb
000000d0: 92d8 7e3f 237f 09bc 5be4 7ebf 7946 7f3f
000000e0: a44b 82bf 7873 5fbc 0d01 683a 1ab0 58ba
000000f0: 37aa 0dba 712f 0a3c 3413 7cbf 1119 c93b
-0.009114458 0.0037574235 1.0017588 -1.0227767 1.008662 0.0004237199 -1.0119234 0.99969405
-0.98367214 0.026346438 1.0077157 -0.02205812 0.0072596134 0.006594085 -0.0070031625 0.99874127
-0.014392229 -0.02718676 -0.97256327 0.0068928367 0.013436179 -0.9883696 -1.0155078 -0.0020861612
-0.98963225 0.028025988 -0.0027676276 -0.0032224031 0.97930294 1.0005703 -0.006072904 0.0006019743
1.0209221 -0.015642995 -0.0026917865 -1.0084686 0.01250226 0.0071918336 0.010229348 0.99037564
-0.98801047 -1.0007106 -0.9773469 -0.98245996 0.0017977054 0.015042518 -1.0049195 0.0032143602
1.0106164 0.013516683 -0.013224721 -0.0058361096 0.9954921 -0.008392128 -0.9956719 0.9971691
-1.0179334 -0.01363837 0.0008850254 -0.0008265987 -0.0005404087 0.0084341625 -0.984668 0.0061370214

fc.weight f4 [1, 64]
00000000: 0102 61bc e48d d739 b103 28bc 2ff5 003d
00000010: c2ae 4b3b 6896 903c 6ade 313b bf1e 773c
00000020: 5dd3 1c3c 9389 61bc e5e6 96bc 5105 383c
00000030: 1d0a 36bc 6d1f 063c 81a6 b03b 5d46 91bb
00000040: 522f 3c3c ddb6 573c d4e1 263b 149f 86bc
00000050: 7a09 50bc b392 b63c 61c7 8e3c c1e7 c33c
00000060: be6b 043c e4c7 df3b bbf8 653c d9b2 dd39
00000070: 578c ae3c f09b b53b 9166 c53a 55e1 9b3c
00000080: 446f cebb 0f6e 2a3c 7c7e ed3b a404 8dbb
00000090: 2bc8 d03b 36a1 deba bef9 e0bb edf6 4f3c
000000a0: 31f6 353b 00f5 54bc 77b6 5c3c b744 85bb
000000b0: 485f 863c 953d ac3c cd94 883b 9aad 52bc
000000c0: d05b 3ebb 13eb e9bc 8d2f 94ba c001 b7bb
000000d0: ff1e a73b f208 11ba ae8f c03a b672 d33c
000000e0: 5c3c b43b 9efa 053c 9319 44bb 5791 82bb
000000f0: 52d5 84bc 4271 8dbc e745 23bc 6fcf 1fbb
-0.013733388 0.00041113712 -0.010254786 0.031483825 0.0031079506 0.017649844 0.0027140626 0.015083014
0.009571877 -0.01376571 -0.018420646 0.011231736 -0.01111081 0.008186203 0.0053909426 -0.004433437
0.011485891 0.013166157 0.0025464194 -0.016433276 -0.012697572 0.022286749 0.017429056 0.02391422
0.008082328 0.0068292487 0.014036353 0.00042285657 0.021307154 0.005542271 0.0015060474 0.019028345
-0.006299885 0.010402217 0.007247744 -0.0043035317 0.006371518 -0.00169853 -0.006865709 0.012693149
0.002776515 -0.012997866 0.013471237 -0.0040670293 0.016402856 0.021025458 0.004168129 -0.012858773
-0.0029046424 -0.028554475 -0.0011305675 -0.0055849254 0.0051001306 -0.0005532644 0.0014691257 0.025811534
0.0055003595 0.008177428 -0.002992247 -0.003984611 -0.016215 -0.01726592 -0.0099653965 -0.0024385115
